pretrained/actor_critic_v0.pth (torch, 899521 bytes, 11 tensors)

PI.0.weight f4 [256, 176]
0	0xbcd5b75b	-0.026088407
1	0x3dff43cd	0.12464104
2	0xbd6888af	-0.056770977
3	0x3c9e2b20	0.019307673
4	0x3dac8c79	0.084252305
5	0xbd4458ba	-0.04793618
6	0xbd1f7047	-0.038925435
7	0x3d685d34	0.05672951
8	0xbd975a41	-0.073902614
9	0xbd9413d2	-0.07230343
10	0x3d175771	0.036948625
11	0xbd830618	-0.06397647
12	0x3ca885ba	0.020571578
13	0x3d560a22	0.052255757
14	0x3df4411e	0.119264826
15	0xbd5f1267	-0.05446091
16	0xbdc8e8c7	-0.09810024
17	0xbd98af06	-0.07455258
18	0x3e1f0dfb	0.15532677
19	0x3ccbf0ab	0.024895033
20	0xbcf13374	-0.02944348
21	0x3d0c4f94	0.03425558
22	0xbd9a8339	-0.0754456
23	0x3d18ce9b	0.03730641
24	0x3cc32f52	0.023826275
25	0x3b08435c	0.0020792102
26	0xbd531c67	-0.05154076
27	0x3d8382a1	0.064214
28	0xbda459b5	-0.08024923
29	0x3d99bfaf	0.07507264
30	0xbd81317f	-0.06308269
31	0xbc37e404	-0.011223797
32	0x3b882f53	0.004156032
33	0xbd3f7281	-0.04674006
34	0x3ca71f45	0.020400653
35	0xbd821b00	-0.06352806
36	0xbc51d946	-0.01280815
37	0x3d81244b	0.063057505
38	0x3dc4090d	0.09572039
39	0xbde2bef7	-0.1107158
40	0x3cd0e5d6	0.02550022
41	0x3da16367	0.078802876
42	0xbd23b2c5	-0.03996541
43	0xbe067b53	-0.13132982
44	0xbcd6bbd8	-0.026212618
45	0x3e12e65e	0.1434569
46	0xbd5e05b5	-0.05420466
47	0x3c80ef3e	0.01573908
48	0xbbf6ae37	-0.0075280922
49	0x3ccb6c83	0.024832016
50	0xbbd2b6c0	-0.006430477
51	0xbc3cf027	-0.011531866
52	0x3d556380	0.052096844
53	0xbd70e244	-0.058809534
54	0x3c8813e3	0.016611045
55	0x3c4142c9	0.011795708
56	0x3c6bb062	0.014385315
57	0x3c756761	0.014978261
58	0x3e2aada2	0.16667798
59	0xbdba42ae	-0.090947494
60	0xbe222a5b	-0.1583647
61	0xbd4b30de	-0.04960715
62	0x3e1c3632	0.15255049
63	0xbc26f28d	-0.010189665
64	0xbe32bac0	-0.17454052
65	0x3d986b31	0.0744232
66	0xbbda1102	-0.0066548595
67	0x398be0ee	0.00026679732
68	0xbc97f339	-0.018548595
69	0x3db566b2	0.08857478
70	0xbc398c64	-0.011324976
71	0xbdb0867a	-0.08619399
72	0xbcdaa3a3	-0.026689356
73	0x3d4a1149	0.04933289
74	0xbc57363e	-0.013135491
75	0x3c7a4168	0.015274383
76	0x3b29540c	0.002583745
77	0xbce0822a	-0.027405817
78	0x3d296385	0.041354675
79	0x3c6a202d	0.014289898
80	0xbd9e987d	-0.077439286
81	0x3d479f9b	0.048736196
82	0x3d9cfe91	0.07665742
83	0xbe25c84e	-0.16189691
84	0xbdea35c1	-0.11436034
85	0x3d9f3e83	0.07775595
86	0x3dcf9165	0.10135154
87	0xbe002ed7	-0.12517868
88	0x3c802496	0.015642446
89	0x3a0c13b7	0.0005343514
90	0x3e134c6a	0.14384618
91	0x3d21c53b	0.039494734
92	0xbe0bbb56	-0.13645682
93	0x3d0b45d0	0.034002125
94	0xbe0f0ab8	-0.13968933
95	0xbd7ee316	-0.062228285
96	0xbe05152b	-0.12996356
97	0x3df5caf7	0.12001603
98	0x3d97c10c	0.07409868
99	0x3c7a1920	0.015264779
100	0xbd195565	-0.037434954
101	0x3e33dd18	0.1756481
102	0x3e00fcb0	0.12596393
103	0xbe11edeb	-0.14250915
104	0xbe0a30a7	-0.13495122
105	0xbc7bd9de	-0.015371768
106	0x3d027805	0.03185274
107	0xbdf2e835	-0.11860696
108	0xbe069186	-0.1314145
109	0x3e4342bc	0.19068426
110	0x3c9bdd61	0.01902646
111	0x3d8f436e	0.06995283
112	0x3dda8cf8	0.10671419
113	0xbe37eb62	-0.17960885
114	0xbdf3831a	-0.1189024
115	0x3d5f7fb8	0.05456516
116	0xbd4d9631	-0.05019206
117	0xbe001d31	-0.12511136
118	0xbe0b49c0	-0.13602352
119	0x3bb27255	0.0054457583
120	0x3d7cfc79	0.061764214
121	0x3d18b184	0.037278667
122	0xbd80c5af	-0.06287705
123	0xbd14cb47	-0.036326673
124	0xbd89d145	-0.06729368
125	0x3d63306d	0.055466104
126	0x3cab9c8a	0.020948667
127	0xbe3f9efd	-0.18712993
128	0xbd3dcd52	-0.046338387
129	0x3d25197b	0.040307503
130	0xbb70d2aa	-0.003674666
131	0xbd97fcc1	-0.07421256
132	0x3c14ad8c	0.00907458
133	0x3c08343a	0.008313233
134	0xbd1f8f3f	-0.03895497
135	0xbbdd61a1	-0.006756023
136	0x3b7ca65a	0.0038551302
137	0xbddf21ca	-0.108951166
138	0xbdbdea46	-0.092732
139	0xbda9def0	-0.08294475
140	0x3cbfb2e3	0.02340073
141	0xbdbce043	-0.09222462
142	0x3e0efb4f	0.13963054
143	0x3b49e610	0.0030807294
144	0x3d700371	0.058597032
145	0x3e0b3b2c	0.13596791
146	0x3dcd9452	0.100380555
147	0xbe41d5e0	-0.18929243
148	0xbe2407e8	-0.16018641
149	0xbcfd9737	-0.030955894
150	0x3d118f93	0.035537314
151	0xbdea0553	-0.11426797
152	0xbe005ad8	-0.12534654
153	0x3e1a5b82	0.1507397
154	0xbd8f1025	-0.06985501
155	0x3dff888d	0.12477217
156	0x3dc61efc	0.096738786
157	0xbe12414a	-0.14282718
158	0xbc431859	-0.01190766
159	0x3db2d5e7	0.08732205
160	0xbddbbb37	-0.10729068
161	0xbe211ca8	-0.15733588
162	0xbdb0e10f	-0.086366765
163	0x3e2b1a2e	0.16709206
164	0xbd4bc3f8	-0.049747437
165	0xbd57f7f7	-0.052726712
166	0xbce05e4c	-0.027388714
167	0xbde25171	-0.1105069
168	0xbe44ab62	-0.19206002
169	0x3d588ccf	0.05286866
170	0x3d6c54ec	0.057698175
171	0xbddb9c4d	-0.107231714
172	0xbe07b3ae	-0.13252136
173	0x3ddae220	0.10687661
174	0x3e0801d2	0.13281944
175	0xbdedacc0	-0.11605215
176	0xba9933b9	-0.0011688388
177	0xbc494b1e	-0.012285976
178	0x3dbb2dbb	0.09139582
179	0xbdf91ed3	-0.121640824
180	0x3e1de372	0.15418795
181	0xbdadf858	-0.084946334
182	0x3c7b0535	0.015321066
183	0xbc2f524b	-0.0107007725
184	0xbe0a546d	-0.13508768
185	0x3d8324c8	0.064035
186	0xbe251c0f	-0.16123985
187	0xbbcdb56e	-0.0062777316
188	0xbdbde5ec	-0.0927237
189	0xbd94e014	-0.07269302
190	0xbe4b8ed5	-0.19878705
191	0xbd69239d	-0.05691873
192	0xbd680dd8	-0.056653827
193	0xbaff6697	-0.001948553
194	0xbc9fff3b	-0.019530883
195	0x3d08ae68	0.03336945
196	0xbc335f15	-0.010947962
197	0xbe3115b5	-0.17293437
198	0xbcaf3e10	-0.021391898
199	0xbb04a03a	-0.0020237104
200	0x3d204609	0.03912929
201	0x3e1caa75	0.15299399
202	0x3d7abd69	0.06121579
203	0x3e0c3f92	0.13696125
204	0xbd7389ed	-0.05945771
205	0x3c74c49a	0.014939452
206	0x3de821ac	0.113345474
207	0x3df86598	0.121287525
208	0x3da28364	0.07935217
209	0xbac07449	-0.0014683093
210	0x3d0b45ae	0.034002
211	0x3e14f673	0.14547138
212	0xbd086028	-0.033294827
213	0xbd48f530	-0.049061954
214	0xbe305739	-0.17220773
215	0xbb880c16	-0.0041518314
216	0x3e048c26	0.12944087
217	0xbe62d024	-0.22149712
218	0xbd7cd38f	-0.061725195
219	0xbda53d20	-0.08068299
220	0x3ca910d9	0.020637916
221	0x3d1e91e6	0.03871336
222	0x3dbe6cc1	0.09298087
223	0xbe27527c	-0.16340059
224	0x3c91f313	0.017816102
225	0xbe1b2aab	-0.15152995
226	0x3d3b9700	0.0457983
227	0x3dc9ce5f	0.09853815
228	0xbe3f42f2	-0.18677881
229	0xbe603edd	-0.2189898
230	0xbe147752	-0.14498642
231	0x3c775c56	0.015097698
232	0x3cbdf270	0.023186892
233	0xbcaea3b0	-0.021318287
234	0x3db264d7	0.0871064
235	0xbe23e82a	-0.16006532
236	0x3de5c940	0.11220026
237	0x3b5f00fa	0.0034027682
238	0xbd8c805f	-0.06860422
239	0x3dc48db6	0.09597342
240	0xbd8a0a89	-0.06740291
241	0x3deb1b2f	0.11479794
242	0x3a854ff8	0.0010170927
243	0xbc75adb2	-0.0149950255
244	0x3d57bd43	0.05267073
245	0xbe75dc82	-0.24009898
246	0xbd3eeedb	-0.04661451
247	0xbe3ae4e7	-0.18251382
248	0x3dac288a	0.0840617
249	0x3dc28916	0.09498803
250	0xbe1f7c08	-0.15574658
251	0xbd331e5b	-0.04373012
252	0xbe305cae	-0.17222854
253	0xbaf10bb1	-0.0018390325
254	0x3d5e156d	0.054219652
255	0xbe657a37	-0.22409903

PI.0.bias f4 [256]
0	0x3d1fc037	0.03900167
1	0xbc62b6a5	-0.013837491
2	0xbd259b5b	-0.04043136
3	0x3daec965	0.08534507
4	0xbd032247	-0.03201511
5	0x3e03049d	0.12794729
6	0xbd0d1313	-0.03444202
7	0x3b98556d	0.0046488554
8	0x3cccc2ec	0.02499529
9	0x3d9d3d97	0.07677763
10	0x3d8d7308	0.06906706
11	0x3e045f63	0.12927012
12	0x3d01f676	0.031729184
13	0xbd782fc0	-0.060592413
14	0x3d27760d	0.040884066
15	0xbcf6ccf6	-0.03012703
16	0x3d04f3d3	0.03245909
17	0x3cd8633f	0.026414512
18	0xbc01ad6e	-0.007914884
19	0x3c3d1ffd	0.011543271
20	0xbd20cba1	-0.039256696
21	0xbd2402f6	-0.040041886
22	0x3c303660	0.0107551515
23	0x3cee2290	0.029069215
24	0x3cadea13	0.02122978
25	0xbc528825	-0.012849842
26	0x3c9d0a44	0.019169934
27	0xbd5c6450	-0.053806603
28	0xbcdd5996	-0.027020257
29	0xbc7fa90a	-0.015604267
30	0xbc918ea1	-0.017768206
31	0xbcd4ffc1	-0.02600086
32	0x3d68a3d1	0.056796852
33	0x3d7c4b9a	0.061595537
34	0xbca8c247	-0.020600451
35	0x3c962d2d	0.018332088
36	0xbd0d5950	-0.034509003
37	0x3d24b995	0.040216047
38	0xbb3ec6ae	-0.0029110122
39	0xbcc68d17	-0.024237199
40	0xbd80da93	-0.0629169
41	0x3c36661f	0.011132746
42	0xbc2ff4f2	-0.010739552
43	0xbc996992	-0.018727098
44	0x39256ef3	0.00015776958
45	0x3c99a91b	0.018757394
46	0xbc727411	-0.01479818
47	0xba2a9492	-0.0006507124
48	0xbd84681c	-0.0646517
49	0xbcdb1dfa	-0.026747692
50	0xbda32ab3	-0.079671286
51	0xbc81ffe1	-0.015869083
52	0xbd126e38	-0.035749644
53	0xbc9d3c42	-0.019193772
54	0xbc251157	-0.010074935
55	0x3d3aaf58	0.045577377
56	0x3b8034f7	0.003912564
57	0x3b9946d2	0.004677632
58	0x3b867a63	0.004103945
59	0xbc378b24	-0.011202607
60	0x3d370c49	0.04468945
61	0x3e0471ef	0.12934087
62	0xbba7bc9f	-0.005118921
63	0x3d32c697	0.04364642
64	0xbcf6037f	-0.030030964
65	0xbced8ca6	-0.02899773
66	0xbd93e402	-0.072212234
67	0xbd03dfbf	-0.032195803
68	0x3c1b66a3	0.00948492
69	0xbccd639d	-0.025071913
70	0xbbe5c2c2	-0.0070117423
71	0x3c96ddef	0.018416373
72	0x3dd2908d	0.10281477
73	0x3d86f374	0.06589404
74	0x3c98bd3d	0.018644923
75	0x3d91d5eb	0.0712088
76	0xbb9dab49	-0.0048116785
77	0xbc5c9243	-0.013462606
78	0x3d1e1879	0.038597558
79	0x3a6cf677	0.00090394117
80	0xbcf55ff2	-0.029952977
81	0xbc62f1bb	-0.013851578
82	0x3c39788c	0.0113202445
83	0x3bbdc21c	0.005790962
84	0x3d345b64	0.04403247
85	0xbda83435	-0.08213083
86	0x3d59592a	0.05306355
87	0x3c9b71e8	0.018975213
88	0xbc9a9d8b	-0.01887395
89	0xbb004ab9	-0.0019575788
90	0xbc9fb344	-0.01949466
91	0x3d098837	0.03357717
92	0xbd044f0b	-0.032301944
93	0x399a06d9	0.0002937827
94	0x3d0ce78f	0.03440052
95	0xbd2d1c4f	-0.042263325
96	0x3cbada65	0.022809217
97	0x3b9363b8	0.0044979714
98	0x3dd0be9c	0.10192606
99	0xbc610b72	-0.013735639
100	0x3d8e263e	0.06940888
101	0x3b4c8c3d	0.0031211518
102	0xbc5696e3	-0.013097498
103	0x3d70716c	0.058701918
104	0x3cd12865	0.025531957
105	0x3d4a01c4	0.04931809
106	0xbce1f043	-0.027580386
107	0x3cdd3323	0.027001923
108	0x3d0fd20b	0.035112422
109	0x3df2a984	0.11848739
110	0xbd102b3b	-0.035197478
111	0x3d00cf44	0.031447664
112	0xbd2174d6	-0.039418064
113	0x3a8a71b2	0.0010562448
114	0xbcdd0a3d	-0.026982421
115	0xb8938f9f	-7.036258e-05
116	0x3d2936ef	0.041312154
117	0xbb155074	-0.002278355
118	0xbb329060	-0.0027246699
119	0x3ce68060	0.028137386
120	0x3c36bb05	0.011152987
121	0x3c515e8c	0.012778889
122	0x3d274e66	0.04084625
123	0xbd098179	-0.03357074
124	0xbd35955e	-0.0443319
125	0x3cde0849	0.02710356
126	0x3b017fb0	0.0019759946
127	0xbd65c8c1	-0.056099657
128	0xbd2d6846	-0.04233577
129	0x3d2092ea	0.03920261
130	0x3c720afa	0.014773125
131	0xbbe5f25d	-0.0070174173
132	0x3d6a9a3d	0.057276
133	0xbbae6b51	-0.0053228517
134	0xbc937b0a	-0.018003006
135	0x3d48a51a	0.048985578
136	0xbcdaf420	-0.026727736
137	0x3c81cc8b	0.015844604
138	0x3cc21924	0.023693629
139	0x3d8f3d44	0.06994107
140	0xbc9dd9c2	-0.019268874
141	0x3ca1e426	0.01976211
142	0xbd2eae8d	-0.042646933
143	0xbcaa3ac1	-0.02077997
144	0x3cc11cfd	0.023573393
145	0xbc3403d8	-0.010987245
146	0xbbdc8c95	-0.006730626
147	0xbd8d2cdf	-0.06893324
148	0x3ce0ff3e	0.027465459
149	0xbd0a4b43	-0.03376318
150	0x3d034e5d	0.032057155
151	0x3db320da	0.087465
152	0xbd0ad6e6	-0.03389635
153	0x3d0a47e1	0.033759955
154	0xbd291b01	-0.04128552
155	0xbc17f128	-0.009273805
156	0xbcfcb268	-0.03084679
157	0x3cb1681a	0.021656085
158	0xbcd23b09	-0.025662916
159	0x3d58bd5c	0.052914962
160	0x3cd14a8e	0.025548246
161	0x3b9f8480	0.00486809
162	0xbcc7f7b0	-0.024410099
163	0xbb026755	-0.0019898016
164	0xbc5ca60a	-0.013467321
165	0x3d9211d7	0.07132309
166	0xbcd782e0	-0.026307523
167	0xbd93ca7f	-0.072163574
168	0x3b3ac50b	0.0028498794
169	0x3d5bc305	0.053652782
170	0xbd306c7e	-0.043072216
171	0xbbd63f14	-0.006538281
172	0x3d05e5ce	0.032689862
173	0xbc8b691a	-0.01701789
174	0xbb8091da	-0.003923637
175	0xbca12a4f	-0.019673495
176	0x3d5cb7d6	0.053886257
177	0xbd8116bf	-0.063031666
178	0x3c9408a4	0.018070526
179	0x3b6c3858	0.0036044326
180	0xbc2ae200	-0.010429859
181	0x3dab8af3	0.08376112
182	0xbc0f3f26	-0.008743083
183	0x3d2ee597	0.042699423
184	0xbba85b73	-0.0051378547
185	0x3d720669	0.059088144
186	0xbd9d0807	-0.07667547
187	0xbc6d9aad	-0.01450221
188	0xbce21fc4	-0.027603038
189	0x3d8d5be5	0.06902293
190	0x3ce5d5d3	0.02805606
191	0x3cbe1d81	0.023207428
192	0xbc2995ae	-0.010350628
193	0x3cc4306f	0.023948876
194	0x3c690a07	0.014223582
195	0xbcf4b470	-0.029871196
196	0xbc2fe257	-0.010735116
197	0x3d709cdc	0.058743343
198	0xbcb2b218	-0.021813437
199	0xbd3a6b3a	-0.045512415
200	0xbbc9c7cb	-0.0061578504
201	0x3c9cfc99	0.019163417
202	0x3d22fe26	0.039793156
203	0xbca33a55	-0.019925276
204	0x3c078244	0.008270804
205	0x3cba424f	0.022736697
206	0x3d18e3af	0.03732651
207	0xbd893fad	-0.06701598
208	0xba06c2f5	-0.0005140745
209	0x3d4bad3f	0.049725767
210	0xbb8a17c1	-0.0042142575
211	0x3d53e503	0.051732074
212	0xbce76b44	-0.02824939
213	0x3cc2f336	0.023797613
214	0x3d824d91	0.06362451
215	0x3e28c777	0.1648234
216	0x3d2d41e0	0.04229915
217	0x3d4bacc8	0.049725324
218	0xbcfacfee	-0.030616727
219	0x3c0944d0	0.008378223
220	0x3db4aef9	0.08822436
221	0x3cfa7c95	0.030576983
222	0x3d035832	0.03206653
223	0x3d143888	0.036186725
224	0xbc9cc91f	-0.01913887
225	0x3cd9531f	0.026528893
226	0xbc85731e	-0.016290244
227	0xbca0f623	-0.019648617
228	0xbd1621bb	-0.03665326
229	0xbd1a891e	-0.03772842
230	0x3cd550dd	0.026039535
231	0x3bb1fdd4	0.00543187
232	0xbcdfd0ea	-0.027321298
233	0xbc870daa	-0.016486008
234	0x3dc0b6dd	0.094098784
235	0xbbe0586d	-0.0068464787
236	0x3cfa2623	0.030535763
237	0x3daad2f1	0.08341015
238	0x3d86eb45	0.06587843
239	0x3d81298b	0.06306752
240	0xbc7182ad	-0.014740628
241	0xbce1b889	-0.027553814
242	0x3cb214f1	0.021738501
243	0x3d64982d	0.05580919
244	0x3ca4e329	0.02012785
245	0xbcb4c036	-0.02206431
246	0xbd7a52e9	-0.061114226
247	0xbd956afc	-0.07295796
248	0xbd120a31	-0.03565425
249	0x3d612cf5	0.054974515
250	0xbcea6636	-0.028613191
251	0xbc877ecb	-0.016539952
252	0x3ce501d7	0.027954979
253	0xbd5055b3	-0.05086298
254	0xbc83d915	-0.016094724
255	0x3d9ad0ac	0.07559332

PI.2.weight f4 [256, 256]
0	0xbd931c07	-0.0718308
1	0xbd78e17a	-0.060761906
2	0x3dc3bc36	0.09557383
3	0x3d866a5b	0.065632544
4	0x3e2503f3	0.16114788
5	0x3d147764	0.036246672
6	0x3def413d	0.11682365
7	0xbdb4fae5	-0.08836917
8	0xbc2ded3f	-0.010615646
9	0xbd0fe12c	-0.03512685
10	0x3def9064	0.11697462
11	0xbd346b8e	-0.044047885
12	0xbde6e0cd	-0.11273346
13	0xbe1c0264	-0.15235287
14	0xbdfe55cb	-0.124187075
15	0x3e8ab230	0.2708907
16	0x3cedfa76	0.029050093
17	0x3d1add3f	0.037808653
18	0xbd4421f6	-0.04788395
19	0x3c234496	0.009965083
20	0x3e429ed1	0.19005896
21	0x3c81bafc	0.015836231
22	0x3ce6ab5e	0.028157886
23	0x3e20751b	0.15669672
24	0xbdb5b64a	-0.088726595
25	0x3e4789ee	0.1948621
26	0x3dad70af	0.08468758
27	0xbcf1c154	-0.029511131
28	0x3db08ce5	0.086206235
29	0x3d5c1e49	0.05373982
30	0x3da947dd	0.0826566
31	0xbcda1060	-0.026619136
32	0x3d49325f	0.049120303
33	0x3d7078bd	0.058708895
34	0xbc11d682	-0.00890124
35	0x3ddad048	0.10684258
36	0x3d80d4f2	0.06290616
37	0xbdc59c8b	-0.09648999
38	0xbdb2ea25	-0.08736066
39	0xbd2df955	-0.04247411
40	0xbdc8af8d	-0.09799109
41	0xbca8249c	-0.02052527
42	0x3be52759	0.006993216
43	0x3d0d4eca	0.034498967
44	0xbd6c2a27	-0.057657387
45	0x3d7680d7	0.060181465
46	0xbcff8654	-0.031191982
47	0xbd017022	-0.03160108
48	0x3d616e94	0.055037096
49	0x3da1c036	0.078979895
50	0x3d2cd2d1	0.042193238
51	0x3d469806	0.048484825
52	0x3d303a8f	0.043024596
53	0xbd6ae565	-0.057347674
54	0xbda5e767	-0.08100777
55	0x3d5b660f	0.053564128
56	0xbd32ac7b	-0.04362152
57	0x3d28a203	0.04117013
58	0xbdd307e9	-0.10304243
59	0xbca7f64e	-0.02050319
60	0xbda60782	-0.08106901
61	0x3d639692	0.055563517
62	0xbdffbbca	-0.1248699
63	0xbc83b881	-0.01607919
64	0xbe0262b3	-0.12732963
65	0xbd8567eb	-0.065139614
66	0x3cf36f2f	0.029716102
67	0x3de1c69e	0.11024211
68	0x3ba5d828	0.005061168
69	0xbe302de5	-0.17205007
70	0x3d7fb385	0.062427063
71	0x3d141631	0.036153976
72	0x3da040dd	0.07824872
73	0x3e6a8e2d	0.22905798
74	0x3dc0aaae	0.094075546
75	0xbc66a8f1	-0.014078365
76	0x3e8c4beb	0.2740167
77	0x3ba80df0	0.0051286146
78	0xbd85624d	-0.0651289
79	0xbce30541	-0.027712466
80	0x3e5d1a25	0.21592005
81	0x3cde505f	0.027137933
82	0xbc6f829a	-0.01461854
83	0x3c2567d4	0.010095555
84	0x3d9f278b	0.07771214
85	0xbe1bf64c	-0.15230674
86	0x3d7d3be8	0.06182471
87	0xbcde9b16	-0.02717356
88	0x3c82cc7e	0.01596665
89	0x3d99c13d	0.075075604
90	0x3e5b3f49	0.2141086
91	0x3ec0a9b5	0.37629476
92	0x3c6292ee	0.013828976
93	0xbdcf9ccf	-0.10137331
94	0xbd6431a5	-0.055711407
95	0x3dc0596e	0.09392057
96	0x3de62f4d	0.11239491
97	0x3c91ff46	0.01782192
98	0xbd3ca792	-0.046058245
99	0x3d67140c	0.056415603
100	0xbd9b7b51	-0.0759188
101	0x3dd50dd1	0.10403026
102	0x3de00c39	0.10939831
103	0xbdad95cd	-0.08475838
104	0xbd3d9ce1	-0.04629219
105	0x3da10de7	0.0786398
106	0xbdf87bfa	-0.12133022
107	0xbdd25a66	-0.102711484
108	0x3cea5ede	0.02860969
109	0xbd6b906d	-0.057510782
110	0xbd802158	-0.0625636
111	0xbe8a6ced	-0.2703623
112	0xbbc25a10	-0.0059311464
113	0xbb220762	-0.0024723639
114	0xbd8e4a8f	-0.06947815
115	0xbc1d4454	-0.00959881
116	0x3dc6c62a	0.097057655
117	0x3e402ad2	0.18766335
118	0x3dcbbe07	0.09948354
119	0x3df7a290	0.12091553
120	0x3dbe5cb1	0.09295023
121	0xbc127def	-0.008941158
122	0x3d90e989	0.07075793
123	0xbdc9acc6	-0.09847407
124	0x3d024d67	0.031812098
125	0xbcdaed5b	-0.026724508
126	0xbd4f93b6	-0.050677978
127	0xbd2d6b74	-0.042338803
128	0xbd8e65b9	-0.06952996
129	0xbc450b1d	-0.012026575
130	0xbe3d9904	-0.18515402
131	0x3d8176c7	0.06321483
132	0x3d8c100e	0.06839
133	0xbd065f3c	-0.032805666
134	0x3e22af0f	0.15887092
135	0x3d10159c	0.03517686
136	0xbdb8af0b	-0.09017762
137	0xbe66ade8	-0.22527277
138	0xbdd7b940	-0.105333805
139	0x3e2e6f25	0.17034586
140	0x3d566268	0.05233994
141	0xbd3fe2ae	-0.046847038
142	0x3daac838	0.0833897
143	0xbd85dd17	-0.0653631
144	0x3bb4705e	0.0055065593
145	0x3e061d9a	0.1309723
146	0xbdfbeeb0	-0.123013854
147	0x3dd2d0f7	0.10293763
148	0x3e0ac6db	0.1355242
149	0xbe0e4626	-0.13893947
150	0xbcbc458a	-0.022982378
151	0x3ce4c84f	0.027927546
152	0xbe829b35	-0.2550904
153	0x3dc2ab37	0.09505313
154	0xbd072431	-0.0329935
155	0xbc804289	-0.015656726
156	0x3e2b18f2	0.16708735
157	0xbc8d5d1e	-0.017256316
158	0x3b52cd32	0.0032165763
159	0xbb3de9fc	-0.0028978577
160	0xbcec21a7	-0.02882464
161	0x3ccb3616	0.024806064
162	0x3dfc1daf	0.12310349
163	0x3ddec51e	0.10877441
164	0xbdc01156	-0.093783066
165	0x3d2630c6	0.040573858
166	0xbd7f6f83	-0.062362205
167	0x3d711b7c	0.0588641
168	0xbc2b2ebe	-0.010448156
169	0x3be6e5a4	0.0070464183
170	0xbdc8b6f2	-0.09800519
171	0x3ad2e64e	0.0016090365
172	0xbc4f2392	-0.012642758
173	0x3dc1c8a6	0.09462099
174	0xbd8ad870	-0.067795634
175	0x3b00335b	0.001956186
176	0x3cc0fa66	0.0235569
177	0xbdf286b3	-0.11842098
178	0xbcbdc4a5	-0.023165056
179	0x3d420307	0.04736617
180	0x3d2d934e	0.04237681
181	0xbdb7251d	-0.08942626
182	0xbc0f2958	-0.008737884
183	0x3b3f4c63	0.0029189817
184	0xbd0cfd5e	-0.034421317
185	0x3bca7931	0.006178998
186	0x3cc9efbd	0.024650449
187	0x3e308370	0.1723764
188	0xbd045475	-0.032307107
189	0x3d72d89e	0.059288613
190	0xbe566e8b	-0.20940606
191	0xba84c2ff	-0.0010128914
192	0x3d8dd48a	0.06925304
193	0x3d255897	0.04036769
194	0x3db0369a	0.086041644
195	0x3dc2cc51	0.095116265
196	0x3d54631b	0.051852327
197	0x3dc1172f	0.0942825
198	0x3d91b74b	0.071150385
199	0x3bbe1a1f	0.0058014537
200	0x3d8ac959	0.06776685
201	0x3e08c4ec	0.1335637
202	0x3c6ca6ad	0.0144440355
203	0x3e0c0028	0.13671935
204	0xbdfbaf18	-0.12289256
205	0xbc3e2877	-0.011606327
206	0xbd668f78	-0.056289166
207	0xbde9308a	-0.11386211
208	0xbe2f3e87	-0.17113696
209	0xbbbc4711	-0.0057457765
210	0xbe14a4a4	-0.1451593
211	0x3d52fcd3	0.051510643
212	0xbdc34596	-0.09534757
213	0x3e503afd	0.20335002
214	0xbd451c11	-0.04812247
215	0x3d3b66a0	0.045752168
216	0x3d04fa07	0.032465007
217	0x3d12376e	0.035697393
218	0xbe2fbdbe	-0.17162225
219	0xbd58579d	-0.05281793
220	0x3b9d0d18	0.0047928207
221	0x3ce4eddb	0.02794545
222	0x3d101cee	0.03518384
223	0x3cd6f751	0.026240977
224	0x3d24170c	0.04006104
225	0x3ca322cd	0.019914055
226	0xbcac506b	-0.02103444
227	0xbd1fd7b7	-0.03902408
228	0x3db33692	0.08750643
229	0x3baf4bbe	0.0053496053
230	0x3e6f20e4	0.2335239
231	0xbbe985b0	-0.0071265325
232	0x3e826458	0.2546718
233	0x3e269124	0.16266304
234	0x3d9d649f	0.076852076
235	0x3e0dd189	0.13849463
236	0xbc985911	-0.018597158
237	0x3ca146f2	0.01968715
238	0x3dc3a2ec	0.09552559
239	0x3c58e580	0.013238311
240	0x3c7c883e	0.015413342
241	0x3dfaaae5	0.12239627
242	0x3da5404d	0.08068905
243	0xbce6bbbb	-0.028165689
244	0x3b28a31e	0.002573199
245	0xbe069edb	-0.13146536
246	0x3bd86cf7	0.0066047865
247	0xbd904bf0	-0.07045734
248	0x3d8d7a9c	0.069081515
249	0x3cbdfba1	0.023191275
250	0x3dc44698	0.09583777
251	0xbe49997e	-0.19687459
252	0xbd5593fb	-0.05214308
253	0x3d6699cd	0.05629902
254	0xbce51316	-0.027963202
255	0xbcb6359f	-0.022242365

PI.2.bias f4 [256]
0	0xbd0a22eb	-0.033724707
1	0xbd195e14	-0.037443236
2	0x3d2f9757	0.04286894
3	0x3d0764f6	0.03305527
4	0xbc9e634e	-0.019334462
5	0x3e12bb6c	0.14329308
6	0x3e39635f	0.18104313
7	0x3ce34e2c	0.027747236
8	0xbc972d5b	-0.018454244
9	0x3d51c150	0.051209748
10	0x3dfab9fe	0.122425064
11	0x3ded56e4	0.11588839
12	0x3e00d9e0	0.12583113
13	0x3d9d75b6	0.07688467
14	0x3c935af5	0.017987708
15	0xbd887a45	-0.06663946
16	0xbbba80b0	-0.0056916103
17	0x3d1dcf1e	0.0385276
18	0x3d975648	0.07389504
19	0x3d126aff	0.03574657
20	0x3d8878f9	0.06663699
21	0x3d78ab31	0.060710136
22	0x3d3f181c	0.046653852
23	0x3cbe61a3	0.023239916
24	0xbc15bcee	-0.009139283
25	0x3bd90627	0.006623048
26	0xbd09ba0b	-0.03362469
27	0x3c93e9c2	0.0180558
28	0x3d27839b	0.040896993
29	0x3df521c9	0.11969335
30	0x3ddcb077	0.107758455
31	0x3b5d9c31	0.003381502
32	0x3c94ea4f	0.018178133
33	0xbd0f39ee	-0.034967355
34	0x3dc3c585	0.09559158
35	0xbd80ab98	-0.06282729
36	0x3c80222e	0.015641298
37	0xbc1be8ef	-0.009515985
38	0x3d0d8830	0.034553707
39	0x3d3b571d	0.045737375
40	0x3d897124	0.06711033
41	0x3cca98f4	0.024731137
42	0x3d116115	0.035492975
43	0xbb6cf5c5	-0.0036157232
44	0x3c9cd1bc	0.019142978
45	0x3d307721	0.04308236
46	0x3cc50562	0.024050418
47	0x3dde9a5d	0.10869286
48	0x3dbce7e8	0.0922392
49	0x3d6bde68	0.05758515
50	0x3d5dad92	0.054120608
51	0xbd27de1a	-0.040983297
52	0x3c0e3d4f	0.008681609
53	0x3cad26ec	0.021136723
54	0x3e26d5a4	0.16292435
55	0xbae77811	-0.0017659684
56	0xbd087154	-0.033311203
57	0xbd0db8fe	-0.03460025
58	0x3ddd4c5e	0.108055815
59	0x3dc16f24	0.094450265
60	0xbd076a6a	-0.03306047
61	0xbd72ed28	-0.0593082
62	0x3d85a3c8	0.065253794
63	0x3d6eb187	0.058274772
64	0x3d7671c7	0.0601671
65	0x3c86de3d	0.016463393
66	0xbc84bb53	-0.016202604
67	0xbd5a969a	-0.05336628
68	0xbbbde6f3	-0.0057953536
69	0xbd4b2c52	-0.049602814
70	0x3d0ae641	0.033910993
71	0x3d398b24	0.04529871
72	0x3c8e7909	0.017391698
73	0x3cc3996d	0.02387687
74	0xbd26fb72	-0.04076714
75	0x3da8558b	0.08219441
76	0xbc8970a0	-0.016777337
77	0x3c3ff83c	0.0117168985
78	0x3da1326e	0.07870947
79	0x3de5ab16	0.11214273
80	0xbcca0fec	-0.024665795
81	0x3df202d4	0.11816946
82	0x3d63715b	0.055528026
83	0x3d142387	0.036166694
84	0x3d1fb3e3	0.038989913
85	0x3d21425f	0.039369937
86	0x3e37db55	0.17954762
87	0x3c427ac3	0.011870089
88	0xbcca80c5	-0.024719605
89	0x3d45ff78	0.048339337
90	0xbc5e221a	-0.013557935
91	0x3d1af432	0.03783054
92	0xbd7ec176	-0.062196217
93	0xbd6052ec	-0.05476658
94	0x3d44a53c	0.048009142
95	0x3cc0eafa	0.023549546
96	0xbcbb831a	-0.022889663
97	0x3dcc7ed6	0.099851295
98	0x3d872d37	0.06600421
99	0xb9e5ef80	-0.00043856725
100	0x3d6a2c34	0.05717106
101	0x3cab41f8	0.02090548
102	0x3d96f19c	0.07370302
103	0x3d48f7fe	0.04906463
104	0x3d636a00	0.05552101
105	0x3d7b980d	0.061424304
106	0x3d486a1b	0.048929315
107	0xbcca7388	-0.024713293
108	0x3d8ae5ac	0.06782088
109	0x3d630f2b	0.055434387
110	0xbd813700	-0.063093185
111	0x3d31d617	0.043417063
112	0xbd50b555	-0.05095418
113	0x3dba45cc	0.09095344
114	0x3d512703	0.051062595
115	0xbcb8ea72	-0.02257273
116	0xbd746084	-0.059662357
117	0xbd086e5a	-0.033308364
118	0x3cf3d67b	0.029765358
119	0x3e11d584	0.14241606
120	0xbcc9795d	-0.024594003
121	0x3c891e64	0.016738124
122	0x3bc5d742	0.0060376236
123	0x3c9aa660	0.018878162
124	0xbd843eb2	-0.06457271
125	0xbd1c70f0	-0.038193643
126	0xbcc13db8	-0.023589
127	0xbd1a54b3	-0.03767843
128	0x3d719195	0.05897673
129	0xbd875a28	-0.06608993
130	0x3d4a15b8	0.04933712
131	0x3cd74694	0.026278771
132	0x3d9a2f5e	0.07528566
133	0x3e083144	0.13300043
134	0x3d92d358	0.07169217
135	0xbc360f04	-0.011111978
136	0xbce51805	-0.027965555
137	0x3d263880	0.040581226
138	0x3c696d1d	0.014247206
139	0x3e2ffbc5	0.17185886
140	0xbce72bb8	-0.028219089
141	0x3cc376ec	0.023860417
142	0xbd65a30b	-0.056063693
143	0x3dcff26a	0.10153659
144	0x3d8bd2a6	0.068272874
145	0xbd1dba72	-0.038507886
146	0x3de2bda4	0.11071327
147	0xbcd285db	-0.025698593
148	0x3dbda098	0.092591465
149	0x3d9cb9a6	0.07652597
150	0x3d456880	0.048195362
151	0x3d1a19c5	0.037622232
152	0xbd00c1f3	-0.031434964
153	0x3c92195f	0.017834364
154	0x3cb9eefb	0.022696963
155	0xbd1a87ed	-0.037727285
156	0xbd878b68	-0.066183865
157	0xbc12664d	-0.008935523
158	0x3d76f7f3	0.060295057
159	0x3cc53016	0.02407078
160	0x3dd5c401	0.104377754
161	0xbd16e1c7	-0.03683641
162	0xbd18514f	-0.037186917
163	0x3d8f5bac	0.06999907
164	0xbcf59104	-0.029976375
165	0x3e086d93	0.13323049
166	0xbac8da17	-0.0015323785
167	0xbccff17a	-0.0253837
168	0x3d714e23	0.058912408
169	0xbbd22eea	-0.006414284
170	0x3d978677	0.07398694
171	0x3df7a8de	0.12092756
172	0xbb6d3a16	-0.0036197952
173	0x3c32e9a1	0.010919959
174	0x3dbf50b7	0.09341567
175	0x3d81ae7f	0.063321106
176	0x3c35d051	0.01109703
177	0x3d5a5e25	0.05331244
178	0x3dbac666	0.09119873
179	0xbd469268	-0.048479468
180	0xbd72cca3	-0.059277188
181	0x3d9dbf73	0.07702532
182	0x3c924f8d	0.017860198
183	0x3ad1fb21	0.0016020277
184	0x3de58fea	0.1120909
185	0x3dfd693e	0.12373589
186	0x3cb32cec	0.021872006
187	0xbcc6ae60	-0.02425307
188	0xbd2ee0dd	-0.042694915
189	0x3da1ac9b	0.0789425
190	0x3ab24ba5	0.0013602866
191	0xbd94178e	-0.07231055
192	0x3c41614e	0.011802984
193	0x3d91f8f4	0.07127562
194	0x3d8e1407	0.06937414
195	0x3c489645	0.012242858
196	0xbc0f5a7a	-0.008749599
197	0x3e0f35db	0.13985388
198	0xbcd94aed	-0.026524985
199	0x3d4c684a	0.049904145
200	0x3c539d13	0.012915867
201	0xbd34a5f1	-0.044103567
202	0x3d4a33a5	0.04936566
203	0x3d4dfb38	0.05028841
204	0xbb6cff47	-0.00361629
205	0xbd258b7f	-0.040416237
206	0xbcbd1fc4	-0.023086436
207	0x3c8e3a33	0.017361736
208	0x3d27b366	0.040942572
209	0x3c828464	0.01593227
210	0x3d02523a	0.0318167
211	0x3d71aa3c	0.05900024
212	0xbd95d496	-0.07315938
213	0xbd321da9	-0.043485317
214	0x3d523f92	0.051330157
215	0x3d628c86	0.055309795
216	0x3e1ad514	0.15120345
217	0xbd3a34cd	-0.04546051
218	0x3ba892de	0.005144461
219	0x3ca1ac38	0.01973544
220	0x3d0b76b2	0.034048744
221	0x3ba370a7	0.0049877944
222	0xbd637155	-0.055528004
223	0x3c32eaad	0.010920209
224	0x3cfe9373	0.031076169
225	0x3aa44dc7	0.0012535386
226	0x3d2b7c55	0.04186662
227	0x3c642dbf	0.013926922
228	0xbc9df86e	-0.0192835
229	0x3c044460	0.0080729425
230	0x3c5ecf78	0.013599269
231	0x3c937f50	0.018005043
232	0xbd49edc0	-0.049299
233	0x3e32edfd	0.17473598
234	0xbcee8ef7	-0.029120905
235	0x3cc76815	0.024341622
236	0x3d3b788a	0.045769252
237	0xbc3b04ac	-0.011414688
238	0xbb7491af	-0.003731828
239	0x3c60bc80	0.013716817
240	0x3c50892e	0.012728019
241	0xbd6e378b	-0.05815844
242	0x3dd6be06	0.10485463
243	0x3e103401	0.14082338
244	0x3cb44fc9	0.0220107
245	0x3d9512a0	0.07278943
246	0xbd4cf5d7	-0.05003914
247	0x3ccbe880	0.024891138
248	0x3dc4dbb0	0.096122146
249	0x3d9390b5	0.07205335
250	0xbcf77ae3	-0.030209964
251	0xbd362fe7	-0.044479277
252	0x3d940fef	0.072296016
253	0x3b6691eb	0.0035182189
254	0x3db913c3	0.090369724
255	0xb9e9a631	-0.00044565045

PI.4.weight f4 [6, 256]
0	0xbe4f7919	-0.20261039
1	0xbc832e53	-0.0160133
2	0x3e572872	0.21011522
3	0xbdf7e1b0	-0.12103593
4	0x3daa030a	0.08301361
5	0xbd93f5dd	-0.07224629
6	0xbe9d9853	-0.30780277
7	0x3e1d52f4	0.15363675
8	0xbf269989	-0.65078026
9	0x3e75ffed	0.24023409
10	0xbd4d897d	-0.050179947
11	0x3e873c3b	0.2641314
12	0xbe45e317	-0.19324909
13	0x3c64f7af	0.013975068
14	0x3e6ed45d	0.23323198
15	0x3d35009b	0.04419003
16	0xbda01236	-0.078159735
17	0x3e566281	0.20936014
18	0x3e22c7e7	0.15896569
19	0xbe501bb0	-0.20323062
20	0x3e2c4df2	0.16826609
21	0xbf45aa3a	-0.7721287
22	0x3dfa1266	0.122105405
23	0x3e913cfc	0.2836684
24	0xbf1e4910	-0.61830235
25	0xbcf9b560	-0.030481994
26	0xbda652f1	-0.081212886
27	0xbf338064	-0.70117784
28	0xbed4bfad	-0.41552487
29	0x3dc3a5ab	0.09553083
30	0x3e70dfa8	0.23522818
31	0xbeb35b11	-0.35030416
32	0x3e5c5f8b	0.21520822
33	0x3c2135d1	0.009839491
34	0x3cd0bac4	0.025479682
35	0xba580a3f	-0.0008241273
36	0x390b56df	0.00013288435
37	0xbd775758	-0.060386032
38	0xbc2bc8e0	-0.010484904
39	0xbe162747	-0.1466342
40	0x3ddc8900	0.10768318
41	0xbde36675	-0.111035265
42	0x3e50d215	0.2039264
43	0x3c44be21	0.012008221
44	0x3da054da	0.07828684
45	0xbea9ab67	-0.33138582
46	0x3df2b44c	0.11850795
47	0x3cbeb56a	0.023279864
48	0x3d3212fd	0.04347514
49	0x3e4c5a25	0.19956262
50	0x3e2bed9e	0.16789863
51	0xbea17174	-0.3153187
52	0x3ed5939f	0.41714188
53	0x3e71f614	0.23629028
54	0xbe4981db	-0.19678442
55	0xbeb0b5e5	-0.34513775
56	0x3c9ed78a	0.019389886
57	0x3e5679fe	0.20944974
58	0xbe0914c4	-0.13386828
59	0xbdc21f16	-0.094785854
60	0xbe7fe3e5	-0.24989279
61	0xbd0ca449	-0.034336362
62	0xbe0b9b2e	-0.13633415
63	0x3eb0eacd	0.3455414
64	0xbefcdd1f	-0.49387452
65	0x3e84c309	0.2593005
66	0xbd15ece5	-0.036602873
67	0xbd723986	-0.05913689
68	0xbce414fb	-0.027842036
69	0x3cb8ff9e	0.022582825
70	0x3e903f5f	0.28173348
71	0x3d3e8b0d	0.046519328
72	0x3dbb3020	0.091400385
73	0x3eb70749	0.35747746
74	0xbd25d118	-0.04048261
75	0x3e5e2d9c	0.21697086
76	0xbd57103e	-0.052505724
77	0x3d2aaa95	0.041666586
78	0xbf28fd8a	-0.6601187
79	0xbdf3fa67	-0.11912995
80	0xbd2a6bae	-0.041606598
81	0x3e8014bd	0.25015822
82	0x3e6946ec	0.22780961
83	0x3e0a8d11	0.13530375
84	0x3e825d47	0.2546179
85	0x3e49b4d2	0.19697884
86	0xbe1b2f97	-0.15154873
87	0xbdd9be34	-0.106319815
88	0x3df9294a	0.121660784
89	0x3e906763	0.28203878
90	0x3d167967	0.036736872
91	0xbe330c60	-0.1748519
92	0xbd58bb9e	-0.0529133
93	0xbcdac9d9	-0.026707577
94	0xbeda088f	-0.42584655
95	0x3e511804	0.20419317
96	0xbd097955	-0.033562977
97	0xbf35abd3	-0.7096531
98	0xbcc3a0ef	-0.02388045
99	0xbe993e2c	-0.29930246
100	0xbf2b06c6	-0.6680721
101	0x3e42a0a5	0.19006594
102	0xbf3b8d42	-0.7326242
103	0x3d61bd8a	0.0551124
104	0x3e7f88a0	0.24954462
105	0xbe3d02b5	-0.18458064
106	0x3e28e3cd	0.16493149
107	0x3eb89957	0.3605449
108	0xbf26281f	-0.6490497
109	0xbf27a70f	-0.65489286
110	0xbcaf7fd8	-0.021423265
111	0x3f04c3ff	0.51861566
112	0xbd6b31ea	-0.05742065
113	0x3d6d07fd	0.057868946
114	0x3ec94c1a	0.39315873
115	0x3cc43c1f	0.02395445
116	0x3ea0fb40	0.3144169
117	0xbe8039fc	-0.2504424
118	0x3e36e0ed	0.1785924
119	0xbda62e4b	-0.081142984
120	0xbe556763	-0.2084022
121	0x3e8351b0	0.2564826
122	0xbd5932c8	-0.053026944
123	0x3df65014	0.120269924
124	0x3c26bc99	0.010176801
125	0x3e18a4b5	0.14906581
126	0x3e84c396	0.2593047
127	0x3b3d789d	0.0028911002
128	0x3e7d07df	0.24710034
129	0x3c5321e7	0.012886501
130	0x3e8304b8	0.25589538
131	0x3d1ea9af	0.03873604
132	0x3ea2bd45	0.31785026
133	0x3e344ce5	0.17607458
134	0xbd955b73	-0.07292833
135	0x3df123f4	0.11774436
136	0x3de4b5ff	0.111675255
137	0xbf0ff36f	-0.56230825
138	0x3d299f01	0.041411404
139	0xbdc27a70	-0.09496009
140	0xbf2dd0b5	-0.67896587
141	0xbf4f1d62	-0.8090421
142	0x3bebadd9	0.007192355
143	0x3dbeac05	0.09310154
144	0x3e857abf	0.2607021
145	0x3e12c263	0.14331965
146	0xbeee0b9d	-0.46493235
147	0x3e51f55b	0.20503752
148	0xbeaf1163	-0.34192953
149	0xbecc9551	-0.3995767
150	0xbe642441	-0.22279455
151	0xbe5cd9bd	-0.21567436
152	0x3e0282bf	0.12745188
153	0x3c914c79	0.01773666
154	0x3e644d93	0.22295217
155	0x3eb5984c	0.35467756
156	0xbd0eb943	-0.034844648
157	0xbf2ece0c	-0.6828315
158	0xbf4b7c21	-0.7948628
159	0x3ed9c844	0.42535603
160	0x3e83e61e	0.25761503
161	0x3dbf43b4	0.09339085
162	0x3e84e0bd	0.25952712
163	0x3c8c0a33	0.017094707
164	0x39b7866e	0.00035004638
165	0xbe7983d2	-0.24366692
166	0x3c11e5d9	0.008904898
167	0xbebe777d	-0.37200537
168	0xbd3dafe5	-0.046310324
169	0xbe59440c	-0.21217364
170	0x3e9f8bc6	0.31161326
171	0xbe8df534	-0.27726138
172	0x3ea59e45	0.32347313
173	0x3e2a82eb	0.16651504
174	0xbed90996	-0.42390126
175	0xbefb248b	-0.49051318
176	0x3d1137ec	0.035453722
177	0x3e729b61	0.23692085
178	0xbd507c25	-0.050899643
179	0xbde1f10c	-0.11032304
180	0x3e0f2148	0.1397754
181	0x3e5355fb	0.20638268
182	0xbf00aa67	-0.50260013
183	0xbf2e4bc7	-0.6808438
184	0xbeb08a41	-0.3448048
185	0xbe4380aa	-0.1909205
186	0xbd9ccebf	-0.07656621
187	0xbce165b3	-0.027514314
188	0x3e3e4336	0.18580326
189	0xbddb89de	-0.107196555
190	0xbca16d9e	-0.01970559
191	0xbd37c91b	-0.044869523
192	0xbe821329	-0.25405243
193	0x3c936c4f	0.017995981
194	0x3e87f843	0.26556596
195	0xbc78ee57	-0.015193543
196	0x3cd5b578	0.026087508
197	0x3e36a140	0.1783495
198	0xbee85403	-0.45376596
199	0x3ecd4e1f	0.40098664
200	0x3ea6aa88	0.3255198
201	0xbc2b395f	-0.01045069
202	0x3d48197c	0.04885243
203	0xbd1e1ad7	-0.038599815
204	0xbf067825	-0.52527076
205	0x3e8430c3	0.25818452
206	0x3e63272a	0.22182909
207	0xbd83a43e	-0.06427811
208	0x3e8a5e28	0.2702496
209	0xbe06dc75	-0.13170035
210	0x3e862d2a	0.26206332
211	0xbe325523	-0.1741529
212	0x3d6b9601	0.0575161
213	0xbb896b1f	-0.004193678
214	0xbecd1278	-0.40053153
215	0x3eaba803	0.3352662
216	0xbe0c2e77	-0.136896
217	0xbdd1d7f8	-0.10246271
218	0xbc212276	-0.009834876
219	0x3e9c1f6e	0.3049273
220	0x3e7b9894	0.24569923
221	0x3ebc443b	0.36770806
222	0xbf18a32e	-0.5962399
223	0x3ea98b96	0.33114308
224	0x3e4b5569	0.198568
225	0x3d9dad9b	0.07699128
226	0xbe59ab9b	-0.21256869
227	0xbde5b256	-0.112156555
228	0xbee47de1	-0.44627288
229	0x3e8aab9b	0.2708405
230	0xbd3d3a44	-0.046198145
231	0x3daa4955	0.08314768
232	0xbc8028af	-0.0156444
233	0xbe1799a4	-0.14804703
234	0xbd6c3401	-0.057666782
235	0xbf1a291e	-0.6021899
236	0xbda5cd3e	-0.080957875
237	0x3e105f2a	0.14098802
238	0x3e29ad1f	0.16569947
239	0x3e784dcd	0.24248429
240	0x3e405c6e	0.18785259
241	0x3da6c3ae	0.08142792
242	0xbe9c1516	-0.30484837
243	0xbedbc9d4	-0.4292742
244	0xbe531d9c	-0.20616764
245	0x3e8e7dfc	0.27830493
246	0x3ceb828a	0.02874877
247	0x3e5d4467	0.21608125
248	0x3e525122	0.20538762
249	0x3e477b8d	0.19480725
250	0xbe05c0a7	-0.13061772
251	0xbce9c5eb	-0.028536757
252	0x3e073120	0.13202333
253	0x3e266fb5	0.1625355
254	0xbf4f381c	-0.8094499
255	0x3d0ac165	0.03387584

PI.4.bias f4 [6]
0	0xbcddfae8	-0.02709718
1	0x3d48f527	0.04906192
2	0xbcb177ee	-0.021663632
3	0x3df0d15a	0.11758681
4	0x3d1c8eae	0.038222007
5	0xbdda6760	-0.106642485

V.v.0.weight f4 [256, 176]
0	0xbd022924	-0.031777516
1	0x3d7444f0	0.059636056
2	0xbc69b438	-0.014264159
3	0x3d3c0a94	0.045908526
4	0xbd0db41d	-0.034595598
5	0x3d8d205a	0.06890936
6	0xbce91406	-0.02845193
7	0x3cbe1854	0.02320496
8	0xbb382200	-0.0028096437
9	0x3d377012	0.044784613
10	0x3d2fd202	0.04292489
11	0xbd863bb7	-0.065543585
12	0x3d077c26	0.03307738
13	0xbb811820	-0.0039396435
14	0xbcb946ac	-0.022616707
15	0x3d7abf30	0.061217487
16	0x3d3b5626	0.045736454
17	0x3c0f0260	0.008728594
18	0xbd4f68e4	-0.05063714
19	0x3d8c41c4	0.06848481
20	0xbccb23f2	-0.024797413
21	0xba410000	-0.0007362366
22	0x3d74af64	0.059737578
23	0xbc80d73c	-0.015727632
24	0x3d367558	0.0445455
25	0x3d886094	0.06659046
26	0xbd8ede7a	-0.06976028
27	0xbc33b3f8	-0.010968201
28	0x3c7b7ac0	0.01534909
29	0xba31bf80	-0.000678055
30	0xbd7a432a	-0.06109921
31	0x3ca03568	0.019556716
32	0xbc80f98c	-0.015743993
33	0x3d8e5136	0.069490835
34	0x3d71f084	0.059067264
35	0xbd2793b2	-0.040912338
36	0x3d90acf8	0.07064241
37	0xbd8ddad1	-0.069265015
38	0xbcc1887e	-0.023624655
39	0x3c9b1694	0.018931665
40	0xbc344638	-0.01100307
41	0x3ca97a54	0.020688213
42	0xbd83fb4a	-0.06444414
43	0xbced4172	-0.02896187
44	0x3c640b68	0.013918735
45	0xbc52ab88	-0.012858279
46	0x3d877938	0.066149175
47	0xbcc4621e	-0.023972567
48	0xbd755a1c	-0.059900388
49	0x3d0fec0e	0.03513723
50	0xbd857f89	-0.06518466
51	0xbca77872	-0.020443175
52	0xbd9856e2	-0.074384466
53	0xbb332e20	-0.0027340725
54	0xbb80bb10	-0.0039285496
55	0xbd98f38c	-0.07468328
56	0x3c0a3e30	0.008437678
57	0x3d02db44	0.03194739
58	0xbb045920	-0.0020194724
59	0x3d42ad52	0.047528572
60	0x3d78a994	0.060708597
61	0x3c307f28	0.010772504
62	0x3cfb9250	0.030709416
63	0xbd53a770	-0.051673353
64	0xbd1d2086	-0.038361095
65	0x3d63d184	0.05561973
66	0x3c104cd8	0.0088073835
67	0x3d4d1cf0	0.050076425
68	0xbd25cd92	-0.04047925
69	0xbd4e22f8	-0.050326318
70	0xba3de100	-0.00072433054
71	0xbd666b24	-0.05625452
72	0xbd82c51c	-0.06385252
73	0xbcb2d9da	-0.021832395
74	0x3bd99690	0.006640263
75	0x3c9f34f8	0.019434437
76	0x3c928794	0.017886914
77	0x3cb28418	0.021791503
78	0x3d7ebb2c	0.06219022
79	0x3d09ad6c	0.033612654
80	0x3d4f3868	0.050590903
81	0x3b39b220	0.002833493
82	0x3c9ff578	0.019526228
83	0x3ce5ca3c	0.028050534
84	0x3d23aeda	0.039961673
85	0xbcc52272	-0.024064276
86	0x3d91d6f8	0.0712108
87	0xbd929d7c	-0.07158944
88	0x3d6e7ae8	0.05822268
89	0xbcff172c	-0.031138979
90	0xbc8d08a0	-0.017216027
91	0x3d76d864	0.06026496
92	0x3d61a7b8	0.05509159
93	0x3d2ce0b8	0.042206496
94	0xbcd0b3e8	-0.025476411
95	0x3d070b04	0.03296949
96	0x3cb82624	0.022479124
97	0xbd5e6768	-0.054297835
98	0x3d129f94	0.035796717
99	0x3d611308	0.05494979
100	0x3a942680	0.0011302978
101	0x3d01c568	0.031682402
102	0x3d72b9a8	0.059259087
103	0xbd9436dd	-0.07237027
104	0xbd01eb41	-0.031718496
105	0xbd9990e1	-0.074983366
106	0x3d42f630	0.047598064
107	0xbcd54ee8	-0.026038602
108	0x3c604e20	0.013690501
109	0x3ceb09d8	0.028691217
110	0x39843b00	0.0002522096
111	0xbb13ddc0	-0.0022562593
112	0x3d8a6c2e	0.06758915
113	0x3c94215c	0.018082313
114	0x3c498a18	0.0123009905
115	0x3995d900	0.00028581172
116	0xbd4e1237	-0.05031034
117	0xbd1af801	-0.03783417
118	0x3d3558a8	0.044274002
119	0x3d854a3c	0.065083
120	0x3ca88a78	0.02057384
121	0xbd04b75b	-0.032401424
122	0xbd547253	-0.05186684
123	0x3c45a960	0.012064308
124	0x3d974c8a	0.073876455
125	0x3d89133a	0.0669312
126	0xbd932083	-0.071839355
127	0x3cdf85e0	0.027285516
128	0x3c9f7830	0.01946649
129	0xbcdf165c	-0.027232341
130	0xbcadc92a	-0.021214087
131	0xbcc0dc20	-0.023542464
132	0x3d73c030	0.059509456
133	0x3d965a16	0.07341401
134	0x3d85419c	0.065066546
135	0x3d1c9c38	0.03823492
136	0xbca90224	-0.020630904
137	0x3d8216b4	0.063519865
138	0xbd601e4b	-0.05471639
139	0x3d0ad3c2	0.033893354
140	0x3cba21e4	0.022721238
141	0xbd8529d9	-0.065021224
142	0xbd87d18b	-0.06631764
143	0xbca049a0	-0.019566357
144	0xbd434b4b	-0.047679227
145	0xbd880f4a	-0.06643541
146	0x3c67ecf8	0.014155619
147	0xbd86a542	-0.06574489
148	0xbd81eee1	-0.06344391
149	0x3cb5121c	0.022103362
150	0xbd630a1c	-0.055429563
151	0xbd2b0c1b	-0.04175959
152	0xbd88bbac	-0.066764206
153	0x3d09ea1c	0.03367053
154	0xbd84579c	-0.06462023
155	0x3c781038	0.015140586
156	0x3ca9b808	0.020717636
157	0xbcb456de	-0.022014078
158	0xbd4584bc	-0.04822229
159	0xbd96f43c	-0.07370803
160	0x3cffed04	0.031240948
161	0xbd906f9c	-0.07052538
162	0x3d3bfc98	0.04589519
163	0x39371800	0.0001746118
164	0x3d231016	0.039810263
165	0x3bf654e0	0.007517442
166	0xba128900	-0.00055898726
167	0xbbd38f00	-0.006456256
168	0xbd6f985a	-0.058494903
169	0xbd1bf026	-0.03807082
170	0xbd819016	-0.0632631
171	0xbc5a7d60	-0.013335556
172	0xbb88c970	-0.004174404
173	0xbd4492a4	-0.04799141
174	0x3d132258	0.035921425
175	0xbc17ad48	-0.009257622
176	0x3b502c00	0.0031764507
177	0xbd59e9c8	-0.053201467
178	0x3d74d390	0.059772074
179	0xbc935bf8	-0.01798819
180	0xbd498d17	-0.04920682
181	0x3d18c7cc	0.037299916
182	0xbd08c254	-0.03338845
183	0xbd7ece14	-0.06220825
184	0xbc360340	-0.011109173
185	0xbd1a35ac	-0.03764884
186	0xbbd87df0	-0.00660681
187	0xbd0773d2	-0.03306944
188	0xbd51efcc	-0.05125408
189	0xbca7f774	-0.020503737
190	0xbd98d38c	-0.07462224
191	0xbc9d0d16	-0.019171279
192	0x3cb19594	0.02167777
193	0xbc98c890	-0.018650323
194	0xbd6604ec	-0.056157038
195	0xbd9560cb	-0.072938524
196	0x3d240a58	0.040048927
197	0x395fe600	0.00021352619
198	0x3d63d488	0.055622607
199	0x3a252680	0.00062999874
200	0xbd984751	-0.074354775
201	0xbd06ca08	-0.032907516
202	0xbd94c669	-0.07264406
203	0x3c86ed6c	0.016470633
204	0x3c68fe38	0.014220767
205	0x3c96e6c8	0.018420592
206	0xbc97c71c	-0.01852756
207	0x3d8edfd8	0.069762886
208	0x3cfdadd8	0.030966684
209	0x3c9c6c74	0.019094683
210	0xbd829fce	-0.063781366
211	0xbd8ec50a	-0.06971176
212	0xbd6b9a84	-0.057520404
213	0xbce1408e	-0.027496602
214	0xbd221b20	-0.03957665
215	0x3cf718a0	0.03016311
216	0x3ca8619c	0.020554356
217	0x3d86ee78	0.06588453
218	0x3d8f82a6	0.07007341
219	0xbcc823e6	-0.02443118
220	0xbd51bf18	-0.05120763
221	0x3b5f7800	0.0034098625
222	0x3ce0afec	0.027427636
223	0x3d8f4f66	0.06997566
224	0x3d97fe5a	0.074215606
225	0xbd851766	-0.064986035
226	0xbd36722a	-0.04454247
227	0x3d75c7a4	0.060004845
228	0xbd8d56a2	-0.069012895
229	0xbd7db3d8	-0.06193909
230	0x3d20a46e	0.039219312
231	0xbd6365a0	-0.05551684
232	0x3d71959c	0.05898057
233	0x3d8f4298	0.069951236
234	0xbd86f9c2	-0.06590606
235	0x3d048592	0.032353945
236	0xbd99c934	-0.075090796
237	0x3c9773fc	0.018487923
238	0x3c2b22d8	0.010445319
239	0xbad9af40	-0.0016608015
240	0x3d6dc808	0.058052093
241	0x3d10a33c	0.035311922
242	0x3d2ac5fc	0.04169272
243	0xbd60b574	-0.054860547
244	0xbb9d2fb0	-0.0047969446
245	0xbd89f943	-0.06736996
246	0x3d2ac74e	0.041693978
247	0x3c262700	0.010141134
248	0x3d592fd4	0.053024128
249	0x3d1c78cc	0.03820114
250	0xbc8182d4	-0.015809454
251	0xbd68592c	-0.056725666
252	0xbc847934	-0.016171075
253	0xbd8867e1	-0.06660438
254	0xbd6bc4d6	-0.057560764
255	0xbd847d91	-0.064692624

V.v.0.bias f4 [256]
0	0x3d885790	0.06657326
1	0xbd270d7e	-0.04078435
2	0x3d7f0744	0.06226279
3	0xbd866f56	-0.065642044
4	0xbbcac8e0	-0.006188497
5	0xbd2c6983	-0.04209281
6	0xbc5fcb08	-0.013659246
7	0xbd831499	-0.06400413
8	0xbd95cad8	-0.0731408
9	0xbd75511c	-0.059891805
10	0xbd4f282c	-0.05057542
11	0x3d4c291c	0.049843892
12	0xbc02a9e8	-0.007975079
13	0x3d767390	0.060168803
14	0xbb8b2020	-0.004245773
15	0xbd35ea38	-0.04441282
16	0xbc1223e8	-0.0089196935
17	0xbc3c09e0	-0.011476964
18	0x3d2b01c6	0.04174974
19	0x3c7993e8	0.0152330175
20	0xbd51119e	-0.05104219
21	0x3d91e982	0.07124616
22	0xbce6e188	-0.028183714
23	0xbd91d6de	-0.07121061
24	0x3d2170f4	0.03941436
25	0x3d308ae6	0.043101214
26	0xbd372282	-0.044710644
27	0xbd06ec98	-0.032940477
28	0xbd5653a9	-0.05232588
29	0x3c73e930	0.014887139
30	0x3d7bd6d4	0.061484173
31	0x3d08bf32	0.033385463
32	0x3d3d106e	0.046158247
33	0xbd92673e	-0.07148598
34	0xbd702818	-0.058631986
35	0x3cfcf204	0.03087712
36	0xbaaa5fc0	-0.0012998506
37	0xbc01c310	-0.007920042
38	0xbc16fb78	-0.009215228
39	0x3d5124d4	0.051060513
40	0x3cf8399c	0.030300908
41	0x3b012a20	0.0019708946
42	0xbd6af014	-0.057357863
43	0xbd3f0e96	-0.04664477
44	0x3c054b10	0.008135572
45	0xbd8c0da2	-0.06838538
46	0x3cad95b4	0.021189548
47	0xbd355f7e	-0.04428052
48	0x3d88863a	0.06666227
49	0xbd959639	-0.07304043
50	0x3c991ba0	0.01868993
51	0xbd92893c	-0.07155082
52	0xbd04a821	-0.032386903
53	0x3d5880a8	0.05285707
54	0x3c8760e0	0.016525686
55	0xbd8ba902	-0.06819345
56	0x3d552e44	0.052046075
57	0xbc81a7d2	-0.015827093
58	0x3d74a83c	0.059730753
59	0x3c16a798	0.009195231
60	0x3d68d4f0	0.056843698
61	0xbd30cee0	-0.04316604
62	0xbd79720a	-0.06089977
63	0xbd4e6ff8	-0.05039975
64	0xbd4cef2c	-0.05003278
65	0x3d203570	0.039113462
66	0x3c123e20	0.008925945
67	0xba0d9380	-0.00054007024
68	0x3d6ba5e4	0.057531253
69	0x3d505030	0.050857723
70	0x3d0bd566	0.03413906
71	0x3d5aa52c	0.053380176
72	0x3d967274	0.07346049
73	0xbbc84030	-0.0061111674
74	0x3d9974a6	0.07492952
75	0xbc222568	-0.009896614
76	0x39654200	0.00021863729
77	0xbd5f2fb2	-0.054488845
78	0xbc0b3490	-0.008496419
79	0x3d105bde	0.03524386
80	0x3cb67f04	0.022277363
81	0x3ce1d9e0	0.027569711
82	0xbcd4192e	-0.025890913
83	0xbc3534e0	-0.01105997
84	0x3c60fc98	0.013732098
85	0x3c9a70e8	0.018852666
86	0x3d32adf2	0.04362292
87	0x3c8aff04	0.016967304
88	0x3b903ea0	0.0044019967
89	0xbd78383c	-0.060600504
90	0x3d3276d8	0.04357037
91	0xbd4c8948	-0.04993561
92	0xbd40a9f1	-0.04703707
93	0x3d84825a	0.06470175
94	0xbd7d8274	-0.061891988
95	0x3d1aa71c	0.037757024
96	0xbd1483b0	-0.0362584
97	0xbd2f8b3b	-0.04285739
98	0x3d3f2676	0.04666754
99	0x3d677e38	0.056516856
100	0xbc8c8c1a	-0.01715665
101	0xbd6c8ebc	-0.05775331
102	0xbd8d5068	-0.06900102
103	0x3d5c32ec	0.0537595
104	0x3d6bab88	0.05753663
105	0xbd4719fa	-0.048608758
106	0xbd5c9176	-0.05384966
107	0x3cd40b98	0.025884435
108	0xbb9b5960	-0.004740879
109	0x3bacfee0	0.005279407
110	0x3cde8608	0.02716352
111	0x3d3df3b2	0.046374984
112	0x3d10eae2	0.03538025
113	0xbc02f318	-0.007992528
114	0xbd94b9ca	-0.07261999
115	0x3d6fe40c	0.05856709
116	0x3cf7173c	0.030162446
117	0x3d941d38	0.072321355
118	0x3d9538c2	0.07286216
119	0xbd925fe3	-0.07147195
120	0xbd571841	-0.052513365
121	0x3c5b29e0	0.013376683
122	0x3ce2e568	0.02769728
123	0x3d83f490	0.06443131
124	0x3d32140a	0.043476142
125	0xbc99e7ac	-0.018787228
126	0xbd395ffe	-0.04525756
127	0xbc3a0078	-0.011352651
128	0xbd248a6d	-0.040171076
129	0x3bd4e180	0.0064966083
130	0xbd86ed9c	-0.06588289
131	0xbcf135b6	-0.029444557
132	0x3d4aa080	0.04946947
133	0xbc9e99ea	-0.019360501
134	0x3d4947e4	0.049140826
135	0x3d851dc2	0.064998165
136	0x3d58fe20	0.052976727
137	0x3d2253ac	0.039630577
138	0xbb8ad530	-0.0042368397
139	0xbc97f95e	-0.018551525
140	0x3cac50c4	0.021034606
141	0x3d3532da	0.04423795
142	0x3d97f136	0.07419054
143	0xbd3cdded	-0.046110082
144	0x3c5ec1a0	0.0135959685
145	0xbd1e81b5	-0.038697917
146	0x3d0861a6	0.03329625
147	0xbd1daca7	-0.038494732
148	0xbd5f22dc	-0.054476604
149	0x3d8b81ca	0.06811865
150	0x3d8b0094	0.0678722
151	0x3d5f3ce8	0.054501444
152	0xbcc5c2a4	-0.024140663
153	0xbcef631a	-0.02922206
154	0x3d78db94	0.06075628
155	0xbd4932c7	-0.04912069
156	0x3d722be0	0.059123874
157	0x3d34f472	0.044178434
158	0x3d878026	0.06616239
159	0x3c7cea70	0.015436754
160	0xbbb74cf0	-0.0055938885
161	0xbce83d6c	-0.0283496
162	0xbd2444ce	-0.04010468
163	0xbd2a1e97	-0.04153308
164	0xbd99735c	-0.07492706
165	0x3c859210	0.016305
166	0xbcee42d2	-0.029084597
167	0xbcdf1d10	-0.027235538
168	0x3ce3a078	0.027786478
169	0xbad18d80	-0.0015987605
170	0x3d229eae	0.03970211
171	0x3d87de68	0.066342175
172	0xbc45df40	-0.012077153
173	0x3bc9ba80	0.0061562657
174	0xbd2c8315	-0.042117197
175	0x3b1b3f40	0.0023688823
176	0xbd0f3255	-0.03496011
177	0x3d6f5af4	0.05843635
178	0xbc7690d4	-0.015049178
179	0xbd7ae6ed	-0.061255384
180	0xbc983602	-0.01858044
181	0xbcef052a	-0.029177267
182	0xbd5f0782	-0.05445052
183	0x3c056628	0.008142032
184	0x3d215572	0.039388128
185	0xbd88a107	-0.066713385
186	0x3c447010	0.011989608
187	0xbd831384	-0.06400207
188	0xbd5adbb0	-0.053432167
189	0x3d7d5a38	0.061853617
190	0xbd850cda	-0.06496592
191	0xbd1cf6b6	-0.03832122
192	0x3c244ad8	0.01002761
193	0xbd7de70b	-0.061987918
194	0xbd933349	-0.07187516
195	0xbca71c2e	-0.02039918
196	0x3d9452e6	0.07242374
197	0x3d2f0906	0.042733215
198	0x3d50dcb0	0.050991714
199	0x3d147ad6	0.036249958
200	0x3d46d5b2	0.04854364
201	0x3c153b10	0.00910832
202	0x3d91f1fe	0.071262345
203	0xbd46361c	-0.048391446
204	0xbcb1f142	-0.021721486
205	0xbd39e59c	-0.04538499
206	0xbd8d0ffb	-0.06887814
207	0xbb341600	-0.0027478933
208	0x3d999fb6	0.075011656
209	0x3cfd456c	0.030916892
210	0xbbf81b30	-0.0075716004
211	0x3d57a48c	0.05264716
212	0x3ce7c590	0.028292447
213	0xbd823124	-0.06357029
214	0x3c5576e8	0.013028838
215	0x3d0ca7ba	0.034339644
216	0x3cbd7728	0.023128107
217	0x3d0880f6	0.03332611
218	0x3d26be80	0.04070902
219	0xbd745f97	-0.059661474
220	0xbd9448da	-0.07240458
221	0xbd9089ee	-0.07057558
222	0xbd8e422f	-0.06946217
223	0x3d9034c4	0.07041314
224	0xbd8d3f74	-0.06896868
225	0x3c4ccb10	0.012499586
226	0xbce6c2cc	-0.028169058
227	0xbd41dbc8	-0.04732874
228	0x3d413428	0.04716888
229	0xbbf7b0c0	-0.007558912
230	0x3ce0a998	0.027424619
231	0x3d4ea0b8	0.050446242
232	0xbbbce9b0	-0.0057651624
233	0xbd15b063	-0.03654517
234	0xbd2dc60d	-0.042425204
235	0xbd4ea5fc	-0.050451264
236	0x3d8cc2d2	0.068730965
237	0xbd11dc1e	-0.03561031
238	0x3d0e3e28	0.034727246
239	0x3c0e36c8	0.008680053
240	0x3d772fe0	0.06034839
241	0xbd951916	-0.072801754
242	0xbd01ceab	-0.031691235
243	0x3ced5ebc	0.028975837
244	0xbd4a1fd2	-0.049346752
245	0xbd5d95b9	-0.054097865
246	0x3d8d48ea	0.06898673
247	0x3d831d54	0.06402078
248	0xbd844520	-0.06458497
249	0x3c25cd18	0.010119699
250	0x3d848b32	0.06471862
251	0x3d37900e	0.044815116
252	0xbbc2bb00	-0.0059427023
253	0x38d70c00	0.00010254234
254	0x3d54df48	0.05197075
255	0x3bc94c50	0.0061431304
