pretrained/actor_critic_deploy.pth (torch, 719361 bytes, 11 tensors)

PI.pi.0.weight f4 [256, 88]
0	0xbdee0636	-0.116222784
1	0xbdaa58a7	-0.0831769
2	0x3e5a7a65	0.21335752
3	0x3cebf616	0.028803866
4	0xbd2c3991	-0.042047087
5	0xbd888fed	-0.06668077
6	0x3da4361f	0.08018135
7	0xbccaedb4	-0.024771549
8	0x3d811088	0.06301981
9	0x3e25a4c9	0.16176142
10	0x3ccc2b69	0.024923043
11	0x3e06954c	0.1314289
12	0xbe483446	-0.1955119
13	0x3be2c464	0.0069203842
14	0x3e599766	0.2124916
15	0xbdb6b968	-0.08922082
16	0x3e2cd611	0.16878535
17	0xbe8335be	-0.2562694
18	0xbcfb2c6c	-0.03066083
19	0x3e97b9a1	0.2963381
20	0x3bc5fbb7	0.0060419696
21	0x3c7e2971	0.01551281
22	0x3eafc03e	0.34326357
23	0xbd3f4ced	-0.04670422
24	0xbe9dfc33	-0.30856475
25	0x3ce7f3ec	0.028314553
26	0xbc3e9156	-0.0116313305
27	0x3e6b00e1	0.22949554
28	0x3d9aabd0	0.07552302
29	0xbe414905	-0.18875511
30	0x3de49d15	0.111627735
31	0xbe3cd10e	-0.18439123
32	0x3dbce668	0.09223634
33	0xbdf1af0b	-0.11800965
34	0xbdfae39a	-0.12250443
35	0xbccad102	-0.024757866
36	0xbd0568eb	-0.03257076
37	0x3e07f82f	0.13278268
38	0x3c1ccdfb	0.009570594
39	0x3cdfa491	0.027300151
40	0x3d12e1f1	0.035860006
41	0xbd904cfc	-0.070459336
42	0x3e93cb1a	0.28865892
43	0x3dc3da30	0.095631
44	0xbe8500e9	-0.25977257
45	0xbcebc465	-0.028780172
46	0xbc810d4d	-0.015753413
47	0x3ddcd01f	0.107818834
48	0xbd4ff7a0	-0.050773263
49	0x3d108f87	0.03529313
50	0x3caefc61	0.021360578
51	0xbd8fc917	-0.07020777
52	0xbded4ec7	-0.11587291
53	0x3e1c476e	0.15261623
54	0x3e5a8337	0.21339117
55	0xbd8f9c35	-0.07012216
56	0x3dfde6d8	0.123975456
57	0xbe86da30	-0.2633834
58	0x3e172b48	0.14762604
59	0x3e91d21d	0.28480616
60	0xbcbb6dc9	-0.022879498
61	0x3db8834f	0.0900942
62	0x3e8d07a5	0.27544895
63	0x3e3d13fe	0.18464658
64	0xbe12bf51	-0.14330794
65	0xb9cda27c	-0.00039221707
66	0x38f70bcf	0.00011780077
67	0xbca2d6d0	-0.019877821
68	0x3d660b7b	0.056163292
69	0xbd8f43a1	-0.06995321
70	0x3d81c8cb	0.06337126
71	0xbb577254	-0.0032874541
72	0x3dbf9bdb	0.09355899
73	0x3b93ad00	0.004506707
74	0xbd829a60	-0.06377101
75	0xbe22956b	-0.15877311
76	0x3d937b31	0.07201231
77	0xbc613c20	-0.013747245
78	0xbd549960	-0.051904082
79	0x3e4d45d2	0.20046166
80	0x3d003e3c	0.03130935
81	0x3e12ed8e	0.14348432
82	0xbd21d9d6	-0.039514385
83	0xbf34e641	-0.7066384
84	0xbdc5e801	-0.09663392
85	0x3d1a8b85	0.037730712
86	0x3d35a612	0.04434783
87	0xbda454c2	-0.08023979
88	0x3cbeb961	0.023281755
89	0x3e17e95d	0.14835115
90	0x3c912a87	0.017720474
91	0xbc43d2a9	-0.011952081
92	0xbddc67d4	-0.10761991
93	0xbd6759ae	-0.05648201
94	0x3e2b8570	0.16750121
95	0x3d825b09	0.0636502
96	0xbd80f778	-0.06297201
97	0xbdf0cfe8	-0.11758405
98	0xbc2489b4	-0.010042597
99	0x3dfd0ea2	0.123563066
100	0x3e2a308a	0.16620079
101	0xbe0a4639	-0.1350335
102	0xbe28eab7	-0.16495787
103	0x3d3e7826	0.0465013
104	0x3e031d76	0.12804207
105	0x3dc0165d	0.093792655
106	0xbe092e43	-0.13396554
107	0xbe4d49c9	-0.20047678
108	0xbc5fe94d	-0.013666463
109	0x3dd56fb9	0.104217
110	0x3d79242e	0.06082552
111	0xbea02346	-0.31276911
112	0x3d702413	0.058628153
113	0xbc1d8ffd	-0.009616849
114	0x3dbbeb6d	0.09175763
115	0xbdccb367	-0.09995156
116	0xbcb31c0c	-0.02186396
117	0xbda13680	-0.07871723
118	0xbdbc5d08	-0.09197432
119	0x3e4454f3	0.1917303
120	0x3e144577	0.14479624
121	0xbe1b4a1b	-0.15164988
122	0xbe246c32	-0.16056898
123	0x39b04672	0.00033621822
124	0x3d4dcc39	0.05024359
125	0x3db91cee	0.09038721
126	0xbe55f10b	-0.20892732
127	0xbe984cbf	-0.29746053
128	0xbd43f6f6	-0.047842942
129	0x3e041598	0.12898862
130	0xbe6f7647	-0.23384963
131	0xbc40f1ad	-0.01177637
132	0x3d6be04d	0.057586957
133	0x3d2afb28	0.041743428
134	0x3e843451	0.25821164
135	0xbd1c80a3	-0.038208615
136	0xbe4c7edc	-0.19970268
137	0x3e28581f	0.16439866
138	0x3d4de549	0.05026749
139	0x3d979726	0.07401876
140	0xbbd23d88	-0.0064160265
141	0xbd8648e4	-0.065568715
142	0xbd34abbc	-0.04410909
143	0xbdca49fa	-0.09877391
144	0x3d872d03	0.06600382
145	0xbb826608	-0.003979448
146	0xbdca9209	-0.09891135
147	0xbd6ba0ac	-0.057526276
148	0xbd73ce3d	-0.059522856
149	0x3cf2d5d7	0.029642982
150	0xbe8a50cb	-0.27014765
151	0xbe2d33ee	-0.16914341
152	0x3e381961	0.17978431
153	0xbcf52d97	-0.029928965
154	0x3e31773d	0.17330642
155	0xbe2c08f3	-0.16800289
156	0xbe3a258c	-0.18178385
157	0x3e631832	0.22177199
158	0xb92cb7b2	-0.0001647163
159	0x3dc8821f	0.09790444
160	0xbcabb98d	-0.020962501
161	0xbe036235	-0.12830432
162	0x3de520cc	0.11187896
163	0xbbdf6034	-0.006816888
164	0x3e28004b	0.16406362
165	0xbd224d5f	-0.039624568
166	0xbe911d0b	-0.2834247
167	0x3dc0648c	0.09394178
168	0x3d9a4008	0.07531744
169	0x3e1b3336	0.15156254
170	0xbead8d8f	-0.33897063
171	0xbe1f1f3d	-0.1553926
172	0xbdc03c70	-0.093865275
173	0xbe31fa1a	-0.17380562
174	0x3e588f1d	0.21148343
175	0x3cd317d2	0.025768194
176	0x3d0c94f1	0.03432173
177	0x3dcfc79a	0.10145493
178	0x3da63458	0.081154525
179	0xbe0dff12	-0.13866833
180	0x3e295c75	0.16539176
181	0xbce58a00	-0.028019905
182	0xbdc49cfa	-0.096002534
183	0x3cd718a3	0.026256865
184	0xbde3c420	-0.11121392
185	0x3e574dc9	0.21025766
186	0x3c9d80f4	0.019226529
187	0x3d853173	0.06503572
188	0x3e87004c	0.26367414
189	0xbd53deb8	-0.051726073
190	0xbb91be8e	-0.0044477647
191	0x3dd7e2be	0.105412945
192	0x3ce17297	0.027520461
193	0x3e9b8a01	0.30378726
194	0xbd9ec080	-0.0775156
195	0xbe63c920	-0.22244692
196	0xbd5beaf1	-0.053690854
197	0xbe2e793d	-0.17038436
198	0xbe7adc5d	-0.24498124
199	0x3c5c5edb	0.01345035
200	0x3e8a199e	0.2697267
201	0xba8078d1	-0.0009801631
202	0x3dadc930	0.08485639
203	0xbd782124	-0.06057848
204	0xbdbbce21	-0.09170175
205	0x3e5b17a2	0.21395734
206	0xbd086d9d	-0.03330766
207	0xbd05a2c6	-0.032625936
208	0x3e42befe	0.1901817
209	0x3cb1da21	0.021710457
210	0xbd611f9d	-0.05496179
211	0x3d40082d	0.046882797
212	0x3d86736a	0.06564982
213	0x3eb625df	0.35575768
214	0xbd4dc5e1	-0.05023754
215	0xbe091519	-0.13386954
216	0x3c7490c6	0.014927095
217	0xbd66edc5	-0.0563791
218	0xbceb5c88	-0.028730646
219	0xbdc1224a	-0.09430368
220	0x3e9e879e	0.30962843
221	0x3c8d691e	0.017262038
222	0xbd5fcb64	-0.054637328
223	0xbb0f1f16	-0.0021838597
224	0xbc8e2471	-0.017351361
225	0x3e1df72a	0.15426317
226	0xbbeb05c2	-0.0071723172
227	0xbcc95b1a	-0.024579573
228	0x3e302b76	0.17204079
229	0xbd63b585	-0.055593032
230	0x3daf5be3	0.08562448
231	0xbd8643f0	-0.06555927
232	0x3b05f0e8	0.002043778
233	0x3e6fba9a	0.23411027
234	0xbe08e8b0	-0.13370013
235	0xbe22346a	-0.15840307
236	0x3cf4d155	0.029884974
237	0xbc05c957	-0.008165679
238	0xbe041ca3	-0.12901549
239	0xbdef9af4	-0.11699477
240	0x3eaec349	0.34133366
241	0x3d922250	0.07135451
242	0xbcb07225	-0.021538803
243	0xbd9e1fd7	-0.07720917
244	0xbbbc20ab	-0.005741199
245	0x3e309baf	0.17246889
246	0xbd965f70	-0.07342422
247	0xbcd44975	-0.025913933
248	0xbd2e477c	-0.04254864
249	0x3ce5ea08	0.028065696
250	0x3d6f5ae3	0.058436286
251	0xbd25eb5d	-0.040507663
252	0xbd466153	-0.04843266
253	0x3e820d90	0.25400972
254	0xbbd94035	-0.0066299685
255	0xbd6ab345	-0.05729987

PI.pi.0.bias f4 [256]
0	0xbd96c70a	-0.073621824
1	0x3cbe5f3f	0.023238776
2	0xbdfc0a16	-0.12306611
3	0x3ca5db60	0.020246208
4	0xbdcdcb5f	-0.100485556
5	0xbd18f6e9	-0.037344847
6	0xbcab10c6	-0.020882022
7	0xbe1e919e	-0.15485236
8	0xbd0659b4	-0.03280039
9	0x3dc4e4ab	0.096139275
10	0xbd543c84	-0.051815525
11	0xbdff6690	-0.12470734
12	0x3ca9c48f	0.02072361
13	0xbc862c30	-0.016378492
14	0xbd97e69c	-0.07417032
15	0xbe2e63b1	-0.17030217
16	0x3d420645	0.04736926
17	0x3d95bcaf	0.07311379
18	0xbdb19e8c	-0.086728185
19	0xbe214a66	-0.15751037
20	0xbdda2b0c	-0.10652742
21	0xbd9b5a70	-0.07585609
22	0x3ce912b8	0.028451309
23	0xbe0508a7	-0.12991582
24	0xbda6169d	-0.08109782
25	0x3ca2aa17	0.019856496
26	0xbdae52a1	-0.08511854
27	0xbd97961b	-0.07401677
28	0xb971d62f	-0.0002306334
29	0xbe5a1f56	-0.21301016
30	0xbe61751b	-0.22017328
31	0x3d7ed07b	0.06221054
32	0xbe0c25c6	-0.13686284
33	0xbc34e289	-0.011040338
34	0xbdcf358a	-0.10117634
35	0x3ddc88bc	0.107682675
36	0xbc91473e	-0.017734166
37	0xbdbac457	-0.0911948
38	0xbd1dba0a	-0.0385075
39	0xbd9400f1	-0.07226742
40	0xbccae1eb	-0.02476593
41	0xbe7e84fe	-0.2485542
42	0xbe0f1e4e	-0.13976404
43	0xbe36a42d	-0.17836066
44	0xbd89301f	-0.066986315
45	0xbdd8df97	-0.105895214
46	0xbc5504bc	-0.013001617
47	0x3b79835d	0.0038072683
48	0xbda6ebbb	-0.08150431
49	0x3de6139b	0.11234208
50	0xbd301cc1	-0.04299617
51	0x3c561bb8	0.013068132
52	0xbe0ac7c8	-0.13552773
53	0xbdf273b0	-0.11838472
54	0xbe245ac1	-0.16050245
55	0x3b9d8772	0.004807406
56	0x3de71643	0.11283543
57	0xbcce9ed3	-0.025222218
58	0xbe123053	-0.14276247
59	0xbe74e5f1	-0.2391584
60	0x3bc80aa3	0.0061047836
61	0xbe7f7b6f	-0.2494943
62	0xbc7628d7	-0.015024385
63	0xbdf6ea26	-0.12056379
64	0xbe0187af	-0.12649415
65	0xbd654862	-0.055977233
66	0xbd206a94	-0.03916414
67	0xbe78ac30	-0.24284434
68	0x3dd3ad99	0.103358455
69	0x3a2859ea	0.00064220896
70	0xbdf5ec42	-0.12007953
71	0x3ca325c1	0.019915463
72	0x3d4f46da	0.05060468
73	0xbdb3998a	-0.087695196
74	0xbd939265	-0.07205657
75	0xbdf8adfc	-0.1214256
76	0xbe03123d	-0.12799926
77	0xbe0b27ac	-0.13589352
78	0xbc6b67ce	-0.014368011
79	0xbdfaae1a	-0.122402385
80	0xbe80ed3c	-0.25180995
81	0xbc19dc23	-0.009390864
82	0x3d43f2ba	0.047838904
83	0x3d776041	0.06039453
84	0x3c191c78	0.009345166
85	0x3c66f890	0.014097348
86	0xbd9deedd	-0.07711575
87	0xbe49d497	-0.19710003
88	0xbddcdfe6	-0.10784893
89	0xbc9f89c8	-0.019474879
90	0xbe612efe	-0.21990582
91	0xbe8596ed	-0.2609171
92	0xbde5fa4a	-0.112293795
93	0xbcbaef12	-0.022819076
94	0xbd05fa6f	-0.032709535
95	0xbd91ad93	-0.07113185
96	0x3cce41a4	0.025177784
97	0xbd1e665c	-0.038671836
98	0xbd13cd5e	-0.036084525
99	0xbde38286	-0.1110888
100	0xbdbe8291	-0.09302247
101	0xbdbdd609	-0.092693396
102	0xbdf02dd7	-0.11727493
103	0xbe46abb1	-0.19401433
104	0xbd5f8068	-0.054565817
105	0xbd499e75	-0.049223382
106	0xbd963f42	-0.07336284
107	0x3c93fa57	0.018063707
108	0x3c977be5	0.018491695
109	0xbc192ac8	-0.009348579
110	0x3db73f71	0.08947647
111	0xbd57ce3f	-0.052686926
112	0xbe631f31	-0.22179867
113	0xbe1cca7a	-0.15311614
114	0xbb86f5bc	-0.0041186493
115	0xbd9827e6	-0.07429485
116	0xbdbe65ab	-0.092967354
117	0xbd49cfc0	-0.04927039
118	0xbe0f85c0	-0.14015865
119	0xbdd2d402	-0.102943435
120	0xbe66f022	-0.22552541
121	0x3d7a95ca	0.061178006
122	0xbbe98243	-0.007126124
123	0xbd87f414	-0.06638351
124	0xbde5d8f6	-0.11223023
125	0x3bdbdac7	0.00670943
126	0xbe1e6a92	-0.15470341
127	0x3ba0e188	0.004909698
128	0x3de04335	0.10950319
129	0xbd9b0959	-0.07570142
130	0xbc6ef259	-0.014584147
131	0xbd71886a	-0.058967985
132	0xbe05dc33	-0.1307228
133	0x3bc7f10a	0.006101732
134	0xbe1bbe4d	-0.15209313
135	0x3d897815	0.06712357
136	0xbbb9cee4	-0.0056704152
137	0xbde54e8e	-0.11196624
138	0xbd608f5c	-0.05482422
139	0x3d60b06a	0.05485574
140	0x3cbb47d5	0.0228614
141	0xbda127cc	-0.07868919
142	0xbba41bfd	-0.0050082193
143	0x3d53709f	0.051621076
144	0xbe046ac7	-0.12931357
145	0x3bc5b45b	0.006033463
146	0xbd05c856	-0.03266176
147	0xbd732248	-0.059358865
148	0x3cc0800b	0.023498556
149	0xbdb3d60c	-0.087810606
150	0xbd20f4cc	-0.039295956
151	0xbe424bd4	-0.18974239
152	0xbc43fb91	-0.011961834
153	0xbded910a	-0.1159993
154	0xbe55b39c	-0.20869297
155	0xbde6c746	-0.11268477
156	0x3d8d1365	0.06888465
157	0x3c68884a	0.01419265
158	0xbd30bdd8	-0.0431498
159	0xbce3e136	-0.02781735
160	0xbe1105c7	-0.1416236
161	0x3c9cd874	0.019146182
162	0xbe1216a7	-0.14266454
163	0x3d8abaa6	0.067738816
164	0x3d6e5853	0.0581897
165	0x3df5760a	0.11985405
166	0xbe22f98a	-0.15915504
167	0x3d1236b3	0.035696696
168	0x3c4b057a	0.012391442
169	0xbdba6219	-0.09100742
170	0xbe1b593a	-0.15170756
171	0x3c8621f4	0.016373612
172	0xbe3e0afb	-0.18558876
173	0xbd9c7269	-0.076390095
174	0xbd9c85a3	-0.07642677
175	0xbdaf841e	-0.08570121
176	0xbe2937ab	-0.16525142
177	0xbdd443b3	-0.10364475
178	0xbdaa9bb7	-0.083304815
179	0xbe874f58	-0.26427722
180	0xbd42c9c3	-0.047555696
181	0xbddea153	-0.10870614
182	0xbda7bf41	-0.08190776
183	0xbd91f4a8	-0.071267426
184	0xbdbfd92c	-0.09367594
185	0xbe00b985	-0.1257077
186	0x3d6c9f7b	0.05776928
187	0xbe2a6c41	-0.16642858
188	0xbda65ecb	-0.08123549
189	0x3dc88447	0.09790855
190	0xbcfa467a	-0.030551184
191	0xbd54eb38	-0.051982135
192	0xbcef97d1	-0.029247196
193	0xbacb1e73	-0.0015496745
194	0x3d0496f5	0.032370526
195	0xbd44a436	-0.048008166
196	0xbd84711f	-0.06466889
197	0xbd4f8fe1	-0.050674323
198	0xbdc957b3	-0.098311804
199	0xbcf4f922	-0.029903952
200	0xbd50b6df	-0.05095565
201	0xbdf59ee3	-0.11993196
202	0xbcf489f4	-0.029850937
203	0xbd1936f3	-0.03740592
204	0x3c16318a	0.0091670845
205	0x3ca8aa1e	0.02058893
206	0xbce3c078	-0.027801737
207	0x3cf6d643	0.030131465
208	0xbd5990e6	-0.0531167
209	0xbe049415	-0.12947114
210	0x3c3b5b85	0.011435394
211	0xbd1f81b5	-0.038942058
212	0xbc8df86b	-0.017330369
213	0xbcd1d5d3	-0.025614655
214	0xbdacc341	-0.08435679
215	0x3cc9fc9a	0.024656583
216	0xbd1683c9	-0.036746774
217	0xbd1d5110	-0.038407385
218	0xbe101142	-0.14069083
219	0xbe2d0f4f	-0.16900371
220	0xbd7a5d56	-0.06112417
221	0xbdac6dfa	-0.08419414
222	0x3dcc8be7	0.09987622
223	0x3d06f851	0.032951657
224	0xbdbd4cdb	-0.09243175
225	0x3c481802	0.012212755
226	0xbd826a94	-0.063679844
227	0x3d0e0d12	0.034680434
228	0xbdc5200b	-0.09625252
229	0x3d8a2f49	0.067473
230	0xbc299705	-0.010350947
231	0x3d3427db	0.04398332
232	0xbd7bdf1f	-0.06149208
233	0x3ce4243b	0.027849307
234	0xbe269f51	-0.16271712
235	0xbddec9da	-0.10878344
236	0x3d80de28	0.06292373
237	0xbc6464cc	-0.0139400475
238	0x3c89297c	0.016743414
239	0xbddf533b	-0.10904547
240	0xbd4359c2	-0.04769302
241	0x3ced43ed	0.028963054
242	0xbd9dffbf	-0.07714795
243	0xbd400236	-0.04687711
244	0x3d8c4ba6	0.06850366
245	0xbe38dcf9	-0.18053044
246	0xbdfd4004	-0.12365726
247	0x3cbe75c9	0.023249524
248	0xbc9cec49	-0.019155638
249	0xbd257a06	-0.040399574
250	0xbe05368a	-0.13009086
251	0xbbc8dcc2	-0.006129832
252	0x3b1b3bf5	0.002368686
253	0xbaadd958	-0.0013263626
254	0x3c832845	0.016010413
255	0xbe039979	-0.12851514

PI.pi.2.weight f4 [256, 256]
0	0xbdcaf0b9	-0.099091955
1	0x3c84e42e	0.016222086
2	0xbd4683bf	-0.048465487
3	0x3cd441b5	0.025910238
4	0xbbc7dd77	-0.0060993987
5	0x3ca41d26	0.02003343
6	0x3db59e7c	0.08868119
7	0xbea06152	-0.3132425
8	0xbd7df55f	-0.062001582
9	0xbc7bee12	-0.015376585
10	0x3d0fd9d0	0.03511983
11	0xbcc59285	-0.024117718
12	0x3b9efc63	0.004851864
13	0xbe12f083	-0.1434956
14	0xbc774bad	-0.015093726
15	0xbe1a3353	-0.15058641
16	0x3e78511b	0.2424969
17	0xbc21efcf	-0.009883835
18	0xbe953584	-0.29142392
19	0x3d7b440a	0.061344184
20	0xbd1560b2	-0.03646917
21	0x3d737d58	0.05944571
22	0xbb7f2e00	-0.003893733
23	0xbe3652d9	-0.17805041
24	0x3b9af6d3	0.004729131
25	0xbc2025fb	-0.00977468
26	0x3e26d9c4	0.16294008
27	0x3c1819b8	0.009283476
28	0x3d0e0e0b	0.03468136
29	0xbdffb05f	-0.12484812
30	0x3da75573	0.08170595
31	0x3e100f3e	0.14068314
32	0xbe29b094	-0.16571265
33	0x3de3742d	0.11106143
34	0x3e437d46	0.19090757
35	0xbe27c4c0	-0.16383648
36	0x3c9b5eab	0.01896604
37	0x3e1cb83f	0.1530466
38	0x3b17f98b	0.002318951
39	0xbc1f4226	-0.009720361
40	0x3e139c8b	0.14415185
41	0x3d14b74d	0.03630762
42	0xbe98f855	-0.29876962
43	0x3d9f4fb8	0.07778877
44	0x3e0bd58a	0.13655677
45	0x3d622daf	0.05521935
46	0x3d7ad578	0.061238736
47	0xbe3ff3a7	-0.1874529
48	0x3d47f41f	0.048816796
49	0xbdb1a403	-0.08673861
50	0x3d09a59a	0.033605196
51	0x3d42f4a6	0.047596596
52	0x3cd80562	0.026369754
53	0x3d066841	0.032814268
54	0x3e1d8391	0.1538222
55	0xba6c3669	-0.00090107933
56	0x3d66f790	0.056388438
57	0x3db7f7c1	0.08982802
58	0x3e657ea0	0.22411585
59	0x3e1b0442	0.15138343
60	0x3dfaefcc	0.12252769
61	0xbdedbbfa	-0.11608119
62	0xbd11770e	-0.03551393
63	0xbd88ad8b	-0.06673726
64	0xbd75b0c0	-0.059983015
65	0xbd394e16	-0.045240484
66	0x3bda0cb1	0.006654345
67	0xb9efd7e6	-0.0004574649
68	0xbcae8fbe	-0.021308776
69	0xbd2d89a3	-0.04236759
70	0xbb4f772b	-0.0031656723
71	0x3d41f27f	0.047350403
72	0xbe14bf3a	-0.14526072
73	0xbc377107	-0.011196381
74	0xbd5bd76b	-0.053672235
75	0x3e3c7d32	0.18407133
76	0x3d23fb9a	0.040034868
77	0xbd2f256e	-0.042760305
78	0xbdf2b835	-0.11851541
79	0x3c072705	0.008249049
80	0x3e4b7114	0.19867355
81	0xbd7f54d1	-0.062336747
82	0xbe085eb5	-0.13317378
83	0x3d828937	0.06373828
84	0x3d905138	0.07046741
85	0xbe296636	-0.16542897
86	0x3d575e99	0.05258045
87	0x3e0983e5	0.1342922
88	0xbd6e5c9d	-0.05819379
89	0x3dc53849	0.09629876
90	0xbd188593	-0.03723676
91	0x3dd790ee	0.1052569
92	0x3dd5f377	0.10446828
93	0x3dcf1bb0	0.10112703
94	0x3cfe5b01	0.031049253
95	0x3dae6a35	0.08516351
96	0xbd8d9295	-0.06912724
97	0x3dafe3d2	0.08588375
98	0x3db8718e	0.09006034
99	0x3d9fea32	0.07808341
100	0xbd60abe5	-0.05485143
101	0x3e72a160	0.23694372
102	0xbdeb3a36	-0.11485712
103	0x3d16db73	0.036830377
104	0x3d96d896	0.07365529
105	0xbd07bcc2	-0.033138998
106	0xbd482ba3	-0.04886974
107	0x3db5c15d	0.08874772
108	0x3e2b0edc	0.16704887
109	0x3c844c1e	0.016149577
110	0xbdd445a1	-0.10364843
111	0x3b376934	0.002798629
112	0xbe8d7022	-0.27624613
113	0xbdc4c760	-0.0960834
114	0xbe9ddf7a	-0.30834562
115	0x3d8e3855	0.06944338
116	0x3d2842a2	0.04107917
117	0xbd8896c8	-0.06669384
118	0xbe036667	-0.12832032
119	0x3e15f757	0.14645134
120	0x3d7adfc1	0.061248545
121	0x3dea94a5	0.11454133
122	0x3e2a5bcd	0.16636582
123	0xbe0473ee	-0.12934849
124	0x3cc58993	0.024113452
125	0xbe1b8e69	-0.15191044
126	0x3e707063	0.23480372
127	0x3dc0c50d	0.094125845
128	0xbc8e7e9f	-0.017394362
129	0x3e1b6974	0.15176946
130	0xbeaa2a7a	-0.33235532
131	0x3e367feb	0.17822234
132	0x3ea6c4a7	0.3257191
133	0x3d3cc4fa	0.04608629
134	0xbdb1ce2f	-0.086819045
135	0xbd32ffd2	-0.043701
136	0x3d6eabd9	0.058269355
137	0xbb0ba4e0	-0.002130799
138	0x3d75e93b	0.06003688
139	0xbd75a49f	-0.059971448
140	0x3b7789e2	0.0037771394
141	0xbd4e7c84	-0.050411716
142	0x3e3c5943	0.18393426
143	0x3c947288	0.018121019
144	0x3e4076b4	0.18795282
145	0x3d29ce43	0.041456472
146	0x3c87eeba	0.016593326
147	0x3da4fd67	0.08056145
148	0xbd0c43ff	-0.034244534
149	0x3d0760c2	0.03305126
150	0x3e07316d	0.13202448
151	0x3ca47dbf	0.020079492
152	0xbd24eaee	-0.04026311
153	0x3dcfc956	0.10145824
154	0x3c25914e	0.010105444
155	0x3e3f49b0	0.18680453
156	0x3d7ed8b3	0.06221838
157	0x3e0a7f35	0.13525088
158	0xbe565113	-0.20929365
159	0xbd08fcd4	-0.03344424
160	0xbc93e239	-0.018052207
161	0x3db9eb80	0.09078121
162	0xbd6e4e2f	-0.05818003
163	0xbe56edca	-0.20989147
164	0xbd58754d	-0.05284624
165	0xbd14a210	-0.036287367
166	0x3dca9b22	0.098928705
167	0xbca287bc	-0.019840114
168	0x3c153baa	0.009108463
169	0xbd26ddba	-0.0407388
170	0xbe59f93b	-0.2128648
171	0xbc9b4160	-0.018952072
172	0x3c898d83	0.01679111
173	0x3e2eedd4	0.17082912
174	0x3d75fa76	0.06005331
175	0xbe31e6ea	-0.17373243
176	0x3d52ed3a	0.051495768
177	0x3e0474fe	0.12935254
178	0xbd86af74	-0.06576434
179	0x3e34bfae	0.17651245
180	0xbe14b221	-0.14521076
181	0xbea25dad	-0.31712094
182	0xbe5537f0	-0.2082212
183	0xbd476e01	-0.048688892
184	0xbc237ab6	-0.009977987
185	0xbdddb0b5	-0.1082472
186	0x3c5e7c0d	0.013579381
187	0x3cf6d626	0.03013141
188	0xbc79286b	-0.01520739
189	0xbe4b9f50	-0.19884992
190	0x3db9ff4f	0.090818994
191	0xbcc746c6	-0.02432574
192	0xbda066ac	-0.07832083
193	0xbe9816c5	-0.29704872
194	0x3e8bb7a5	0.27288547
195	0x3b777009	0.0037755987
196	0x3ce712c0	0.028207183
197	0xbbf9c743	-0.007622631
198	0x3d30935e	0.04310929
199	0x3df6740c	0.12033853
200	0x3da2e774	0.079543024
201	0xbe0c5b9c	-0.13706821
202	0xbda56e51	-0.08077682
203	0x3dbaa859	0.09114141
204	0x3ddc96fb	0.10770985
205	0xbda17fe7	-0.078857236
206	0xbd67a12b	-0.056550186
207	0xbba646f2	-0.0050743753
208	0xbded0aa3	-0.115742944
209	0x3cffffc7	0.031249894
210	0x3cf687b1	0.030094
211	0x3d365d5c	0.04452263
212	0x3bb7e786	0.0056123165
213	0xbc80a70f	-0.01570466
214	0xbcc4b68a	-0.024012823
215	0x3cdc2af4	0.02687595
216	0xbe697234	-0.22797471
217	0xbd1ec9b0	-0.038766563
218	0xbc85edc7	-0.016348733
219	0x3d2b80f3	0.041871022
220	0xbd850d5e	-0.0649669
221	0x3d137a90	0.036005557
222	0x3b8a0dd8	0.004213076
223	0xbca887a0	-0.020572484
224	0x3def7554	0.116923004
225	0xbcc288c9	-0.023746865
226	0x3dc135a0	0.09434056
227	0x3c47061b	0.012147452
228	0xbdb67e4e	-0.089108095
229	0x3e197264	0.14985043
230	0xbdaa64f2	-0.08320035
231	0xbd664a58	-0.056223243
232	0xbd64262a	-0.05570046
233	0x3d895c77	0.067070894
234	0x3dfaa9f2	0.12239446
235	0x3e379b44	0.17930323
236	0xbcafe8ab	-0.02147325
237	0x3ca8b843	0.020595675
238	0x3d86ab92	0.06575693
239	0xbd88c34b	-0.06677874
240	0x3d6083e7	0.054813292
241	0x3c25a2c5	0.010109608
242	0x3e0096d6	0.1255754
243	0x3ca30622	0.019900385
244	0x3b18877d	0.0023274117
245	0x3d811e8b	0.06304654
246	0x3cdfed0a	0.027334709
247	0x3db5647a	0.08857055
248	0x3d26ad26	0.04069247
249	0xbe9681c9	-0.29395893
250	0xbba8b7c8	-0.0051488616
251	0xbe75b9be	-0.23996636
252	0x3de21679	0.110394426
253	0x3e17d8b2	0.14828756
254	0x3d426a99	0.04746494
255	0xbd971af6	-0.07378189

PI.pi.2.bias f4 [256]
0	0xbe90527f	-0.2818794
1	0x3dcb2630	0.09919393
2	0xbcaf2ff8	-0.021385178
3	0xbc7a8c09	-0.015292176
4	0x3de64400	0.11243439
5	0x3c78a40d	0.0151758315
6	0xbdbd854e	-0.092539415
7	0xbe2012cc	-0.1563217
8	0x3dd24022	0.102661386
9	0xbd825033	-0.06362953
10	0x3dc87aa5	0.097890176
11	0x3daeaf28	0.08529502
12	0xbcf430b1	-0.029808374
13	0xbcd51d71	-0.026015015
14	0x3d94ac1f	0.07259392
15	0x3da5c3c4	0.0809398
16	0xbe01283b	-0.12613003
17	0x3d010c11	0.031505648
18	0xbe013ada	-0.12620106
19	0xbe633d62	-0.22191384
20	0xbd66025d	-0.056154598
21	0xbdc77b87	-0.09740358
22	0xbe1435a1	-0.14473583
23	0x3d68b6ad	0.05681484
24	0x3d71949a	0.058979608
25	0xbc22acb0	-0.009928867
26	0xbe4d6664	-0.2005859
27	0xbdc0ca2d	-0.09413562
28	0xbe3b55ac	-0.182944
29	0xbd819bbf	-0.06328534
30	0xbe0f52f9	-0.13996495
31	0x3d597b49	0.05309609
32	0xbdf23871	-0.118271716
33	0xbe1468b3	-0.14493065
34	0xbcb5f1d5	-0.022210041
35	0xbdbcf6f3	-0.09226789
36	0x3d096143	0.03354002
37	0x3d44b78a	0.0480266
38	0x3e166c5c	0.14689773
39	0x3e00f968	0.12595141
40	0x3dc68f25	0.096952714
41	0xbd320174	-0.043458417
42	0x3e2851f3	0.16437511
43	0xbd886f79	-0.06661887
44	0x3d5a90a3	0.053360593
45	0xbdbfbfbd	-0.09362743
46	0xbd98cc6a	-0.07460864
47	0x3d0640cb	0.032776635
48	0xbd9eebff	-0.077598564
49	0xbe30b59f	-0.17256783
50	0xbde0c6b0	-0.10975397
51	0x3df9953f	0.121866696
52	0xbe21cf64	-0.1580177
53	0x3c1a1102	0.009403469
54	0x3d3ae379	0.04562709
55	0x3b9ed7b8	0.004847493
56	0xbc2250e0	-0.009906977
57	0xbcf0fc65	-0.029417226
58	0xbe242f98	-0.1603378
59	0x3d5f1b7c	0.05446957
60	0xbd2d3ff0	-0.042297304
61	0xbe3761bf	-0.17908381
62	0xbcedb611	-0.02901748
63	0xbe430401	-0.19044496
64	0x3c590737	0.013246349
65	0xbd6be9d6	-0.05759605
66	0xbd5d7755	-0.054068882
67	0xbdd70821	-0.10499597
68	0xbd04abee	-0.032390527
69	0x3bab171b	0.0052212602
70	0xbddf191c	-0.10893461
71	0x3cb605c9	0.022219555
72	0xbda09482	-0.078408256
73	0xbe1d246e	-0.15345928
74	0x3c6fae45	0.014628951
75	0x3c333aa6	0.010939276
76	0xbd27f3f3	-0.041004132
77	0x3d38683c	0.04502128
78	0xbd068ecd	-0.03285103
79	0xbe201cba	-0.15635958
80	0x3cf499dd	0.029858524
81	0x3df4bff0	0.11950672
82	0x3dfff2bd	0.124974705
83	0xbd92338a	-0.071387365
84	0xbe3121ab	-0.17298
85	0xbe1a2cbc	-0.15056127
86	0xbd8d3fea	-0.06896956
87	0xbdfa990f	-0.12236225
88	0xbe063ca3	-0.13109069
89	0xbe42d286	-0.19025621
90	0xbdcc6c92	-0.09981646
91	0x3c47c945	0.0121939825
92	0xbe02dfbc	-0.1278066
93	0x3ca58929	0.020207005
94	0xbda66bc1	-0.08126021
95	0xbcfe3cca	-0.031034846
96	0x3c802f33	0.015647506
97	0xbdbd9003	-0.09255984
98	0xbe38abea	-0.1803433
99	0x3d933020	0.071869135
100	0xbe36cb55	-0.17851003
101	0xbdff8d81	-0.124781616
102	0xbe3661ae	-0.178107
103	0xbe421377	-0.18952738
104	0xbd03c52c	-0.03217046
105	0xbe441869	-0.19149937
106	0xbd860bef	-0.06545245
107	0xbd96d15d	-0.073641516
108	0xbc8301b0	-0.015992016
109	0xbdfd20b2	-0.12359752
110	0xbd76467a	-0.060125805
111	0xbdf61c28	-0.12017089
112	0xbd835a82	-0.06413747
113	0xbd1a5313	-0.037676882
114	0x3e5feeed	0.21868487
115	0x3e1796a6	0.14803562
116	0xbdff4970	-0.12465179
117	0x3cb896f9	0.022532927
118	0xbca20531	-0.019777866
119	0x3e091461	0.1338668
120	0xbda4b4e8	-0.08042318
121	0x3aa65eaf	0.0012693013
122	0x3cc9c215	0.024628678
123	0xbd50df84	-0.05099441
124	0xbd4efb19	-0.050532434
125	0xbe357ee5	-0.17724188
126	0xbcce1d95	-0.02516059
127	0xbcb6aadb	-0.022298267
128	0xbdde5a71	-0.10857094
129	0xbe00fca8	-0.1259638
130	0x3d112e66	0.03544464
131	0xbdbaf168	-0.09128076
132	0xbd74f0cd	-0.059799958
133	0x3cc10648	0.023562565
134	0xbd06160a	-0.03273586
135	0xbe2607d7	-0.16213928
136	0xbdc45a8d	-0.09587584
137	0xbda3793e	-0.079821095
138	0xbe804019	-0.25048903
139	0x3c66fffb	0.014099116
140	0xbda4b4de	-0.0804231
141	0x3dcf50ed	0.10122857
142	0x3da16b28	0.078817666
143	0x3dda41a7	0.106570534
144	0xbcbb68a7	-0.02287705
145	0x3c543472	0.012951957
146	0xbe0b7fe2	-0.13623002
147	0xb68d2ea8	-4.207559e-06
148	0x3debc462	0.115120664
149	0xbdfbd316	-0.12296121
150	0x3c95df39	0.018294917
151	0xbdf4b6bd	-0.11948917
152	0xbd79e2be	-0.061007254
153	0xbc6d4e7c	-0.014484044
154	0xbd34510f	-0.044022616
155	0x3d40ed3b	0.04710124
156	0xbda6e680	-0.08149433
157	0x3d58696e	0.05283492
158	0xbe4117ac	-0.18856686
159	0x3da3f1ba	0.0800509
160	0xbdd38ca5	-0.1032956
161	0x3bc74292	0.006080934
162	0x3dbb4452	0.091438904
163	0x3bca707e	0.006177961
164	0x3d7dfb3a	0.062007166
165	0xbd87f183	-0.066378616
166	0xbe3bdbf9	-0.18345632
167	0x3d9b7859	0.07591314
168	0xbdd9e022	-0.10638453
169	0xbe04f9bb	-0.1298589
170	0xbdcd714d	-0.10031376
171	0xbe0beeb1	-0.13665272
172	0x3d6e7280	0.058214664
173	0xbe26c67d	-0.16286655
174	0x3da8c403	0.08240511
175	0xbd97fc16	-0.074211285
176	0xbe3b5f8c	-0.18298167
177	0x3d21a935	0.03946801
178	0xbdbad11e	-0.09121917
179	0xbcd11f5e	-0.025527652
180	0x3dd1e78c	0.10249242
181	0x3d41e776	0.04733988
182	0x3d469184	0.04847862
183	0x3d5c10d7	0.053726997
184	0x3d27c8f4	0.04096313
185	0xbe18a856	-0.14907965
186	0xbe47b8a7	-0.19504033
187	0xbd8d9707	-0.06913572
188	0xbdafbad0	-0.085805535
189	0xbd23ca20	-0.039987683
190	0x37b6e0ea	2.1800824e-05
191	0xbe80b1cf	-0.25135657
192	0xbd7260d1	-0.059174363
193	0xbdbae54b	-0.091257654
194	0xbdd036b4	-0.10166684
195	0xbd289cc5	-0.041165132
196	0xbe0495f9	-0.12947835
197	0x3b90e9ff	0.0044224258
198	0xbdf14dd2	-0.11782421
199	0x3c583e46	0.013198441
200	0x3c762989	0.015024551
201	0xbe4a77af	-0.19772218
202	0xbe1b8799	-0.15188445
203	0x3c7a8ab4	0.015291858
204	0xbdb98673	-0.09058847
205	0xbd81726d	-0.06320653
206	0x3e53afc5	0.2067252
207	0xbdab4e85	-0.08364586
208	0xbdce0c3b	-0.100609265
209	0xbd52b873	-0.051445436
210	0xbda9f4ef	-0.082986705
211	0x3df2aea0	0.11849713
212	0xbe08f531	-0.13374783
213	0xbd870c81	-0.06594182
214	0x39cbc429	0.00038865328
215	0xbdd8625a	-0.10565634
216	0xbe04523f	-0.12922
217	0xbd44b893	-0.048027586
218	0x3d478e8a	0.04871992
219	0xbd6c425a	-0.057680465
220	0x3d2e8f41	0.042617086
221	0x3cf82a8a	0.030293722
222	0xbe0782fc	-0.1323356
223	0x3df10a2d	0.11769519
224	0xbe2d5fb8	-0.16931045
225	0x3dc57fdc	0.09643528
226	0xbc91846c	-0.017763339
227	0xbe45156a	-0.1924645
228	0xbdb08036	-0.08618204
229	0xbc50d159	-0.012745225
230	0x3dc93bd7	0.09825867
231	0xbdbdfb55	-0.092764534
232	0x3e214d74	0.15752202
233	0xbcbe58e5	-0.023235748
234	0xbe3c14a8	-0.18367255
235	0x3d0c1a81	0.034204964
236	0xbd0e2c09	-0.034709964
237	0x3defe27f	0.117131226
238	0xbd832da3	-0.06405189
239	0xbd728d66	-0.05921688
240	0x3d8a857b	0.06763741
241	0xbc246a09	-0.010035046
242	0x3d57a71b	0.0526496
243	0xbd0f354c	-0.034962937
244	0xbe0ada36	-0.13559803
245	0xbdd55646	-0.10416846
246	0x3d423f55	0.04742368
247	0xbdf779e2	-0.12083794
248	0xbda35dd8	-0.07976884
249	0xbc9d4453	-0.019197619
250	0xbdfce2a6	-0.12347917
251	0xbe11a38c	-0.14222544
252	0xbdf6fb81	-0.12059689
253	0xbdcaaf35	-0.09896699
254	0xbd02f4d1	-0.031971756
255	0xbd20b26c	-0.039232656

PI.pi.4.weight f4 [6, 256]
0	0x3ce2f368	0.027703956
1	0xbcd062bf	-0.02543771
2	0xbcd0aaa7	-0.025471998
3	0x3e17a7e8	0.14810145
4	0xbef0cd71	-0.4703174
5	0xbe414a4f	-0.18876003
6	0xbbf46597	-0.0074583995
7	0xbe2e0e9f	-0.16997765
8	0xbf09068f	-0.5352563
9	0x3d8b2fe6	0.06796245
10	0xbf8a01f2	-1.0781844
11	0xbc5f28b2	-0.013620542
12	0x3e1a8f29	0.15093674
13	0xbbc12094	-0.005893776
14	0xbf83bfe2	-1.0292933
15	0xbec24860	-0.37945843
16	0x3ea8b44b	0.32950053
17	0x3c90a515	0.017656842
18	0x3eb4ea3b	0.35334954
19	0x3e89cb81	0.26913074
20	0x3d9a810e	0.075441465
21	0x3d86617e	0.06561564
22	0xbde7a703	-0.11311152
23	0x3e2f0ff7	0.17095934
24	0xbf2b0522	-0.6680471
25	0xbdf80697	-0.12110632
26	0x3e359d3d	0.17735763
27	0x3c8f0e43	0.017462855
28	0x3dc7f903	0.09764292
29	0xbcfb92bd	-0.030709619
30	0x3da95ab0	0.082692504
31	0x3d8cdf8e	0.06878577
32	0xbd8b4cb6	-0.06801741
33	0x3e20d086	0.15704545
34	0x3be9b466	0.007132101
35	0xbd8ecdf9	-0.0697288
36	0xbd9e9c51	-0.07744659
37	0xbe81311f	-0.2523279
38	0xbe133528	-0.14375746
39	0xbeeb8ccf	-0.46005866
40	0xbf1920e8	-0.59815836
41	0x3e28f7a4	0.16500717
42	0xbf65f703	-0.89830035
43	0xbd13b532	-0.036061473
44	0xbf70eff5	-0.94116145
45	0x3d8d9531	0.06913222
46	0x3d103fa1	0.03521693
47	0x3dc77bfc	0.09740445
48	0xbda1b72c	-0.078962654
49	0x3bd29e05	0.006427529
50	0x3e3f507d	0.18683048
51	0x3e138fae	0.14410278
52	0x3ea5a6bd	0.32353774
53	0xbf92a51b	-1.1456636
54	0xbcd88856	-0.026432198
55	0xbdf5d4b8	-0.120034635
56	0xbe7f7296	-0.24946055
57	0x3de176a1	0.11008955
58	0xbcc718bb	-0.024303785
59	0x3caa7d93	0.020811832
60	0xba299240	-0.00064686313
61	0x3db677fc	0.08909604
62	0x3d700bbe	0.05860495
63	0x3de40679	0.11134047
64	0xbe14c434	-0.1452797
65	0x3c09f5ec	0.008420449
66	0xbe74a874	-0.23892385
67	0x3e8fd613	0.28093013
68	0x3da5ce41	0.080959804
69	0x3ce09b96	0.02741794
70	0x3d22c4c3	0.039738428
71	0x3d2a2dee	0.04154771
72	0xbcdb7400	-0.026788712
73	0x3e866dbb	0.26255593
74	0xbe2e16f5	-0.17000945
75	0x3d47eb9b	0.048808675
76	0x3dfce7a7	0.12348872
77	0x3e1dde2b	0.15416782
78	0x3e291cfe	0.16514966
79	0x3e22b797	0.15890346
80	0xbf5ae028	-0.85498285
81	0xbe4568e3	-0.19278292
82	0xbdf50f94	-0.11965862
83	0x3e5ea8ed	0.21744128
84	0x3e4051b2	0.18781164
85	0x3df8303b	0.12118574
86	0xbcce1fa6	-0.025161576
87	0x3e195830	0.14975047
88	0x3e06b2aa	0.13154092
89	0x3d7a24da	0.0610703
90	0x3e16a4f5	0.14711364
91	0x3ca6a2ec	0.02034136
92	0x3dca6cea	0.09884055
93	0x3dc0bb1f	0.094106905
94	0x3ddfea94	0.10933414
95	0xbf2cf411	-0.67559916
96	0xbe9052c0	-0.28188133
97	0x3d5b46d6	0.05353435
98	0x3d98656d	0.074412204
99	0x3e431632	0.19051436
100	0x3db129ae	0.08650528
101	0x3e32cd47	0.1746112
102	0x3cf828ee	0.030292954
103	0x3dd8a291	0.10577882
104	0xbea6c1e1	-0.32569793
105	0x3ea1db43	0.31612596
106	0xbd955cb8	-0.07293075
107	0x3e733a4f	0.23752712
108	0xbea0534c	-0.3131355
109	0x3e1fc648	0.15602982
110	0x3e318ca6	0.1733881
111	0x3d787a30	0.060663402
112	0x3e9ced8f	0.30649993
113	0x3e32b0ca	0.17450252
114	0xbf04ab57	-0.51823944
115	0xbf6e6f3d	-0.93138486
116	0xbe021a34	-0.12705308
117	0xbe12c770	-0.14333892
118	0x3db75259	0.089512534
119	0xbf558885	-0.8341144
120	0x3df7bf6b	0.12097057
121	0xbdd15f0b	-0.10223206
122	0xbd99ab71	-0.07503403
123	0x3cf8d4b9	0.030374872
124	0xbea42193	-0.32056865
125	0x3d9d4082	0.076783195
126	0xbe005879	-0.1253375
127	0xbcaa7e59	-0.0208122
128	0x3d766e9c	0.06016408
129	0x3d98da93	0.07463565
130	0xbe1911f1	-0.1494825
131	0xbe983144	-0.29725087
132	0xbc90daab	-0.017682394
133	0xbdb9d7ae	-0.09074341
134	0x3e0e8b15	0.13920243
135	0x3e02f651	0.12789275
136	0x3ec184bc	0.3779658
137	0x3e1251c1	0.14288999
138	0x3e1dcb5f	0.15409611
139	0x3da173c4	0.07883409
140	0xbe34a754	-0.17641956
141	0xbd646dcb	-0.05576877
142	0xbf1ed730	-0.620471
143	0xbf08999b	-0.53359383
144	0xbd82e089	-0.06390483
145	0xbcc26a9e	-0.02373248
146	0x3dc983e1	0.09839607
147	0x3e5f94ce	0.21834108
148	0xbf7e8c0c	-0.99432445
149	0x3c2b11c1	0.010441245
150	0xbe8ed0b4	-0.27893603
151	0x3dd4c31e	0.10388778
152	0x3d5506f8	0.0520086
153	0xbdbbc8b4	-0.091691405
154	0x3c9d5de5	0.019209811
155	0x3dc8143f	0.09769487
156	0x3c99bd9d	0.018767172
157	0xbf830110	-1.0234699
158	0x3dbc0326	0.09180288
159	0xbf3ee483	-0.7456743
160	0x3e2a3239	0.16620721
161	0xbe524cda	-0.20537129
162	0x3de9e28f	0.11420166
163	0x3b99dc9b	0.0046954877
164	0xbe452315	-0.19251664
165	0x3e0849c6	0.13309392
166	0x3eaf98ae	0.34296173
167	0xbd47592a	-0.048669018
168	0x3e80bec5	0.25145546
169	0x3df45422	0.119301096
170	0x3b38ef43	0.0028218783
171	0x3e2f9fc0	0.17150784
172	0x3d59d938	0.05318567
173	0x3db188db	0.08668681
174	0x3d5f02cb	0.054446023
175	0xbfc140be	-1.5097883
176	0x3db13f64	0.08654669
177	0xbd9a8bbc	-0.075461835
178	0x3c3eaa71	0.011637316
179	0x3e1ffbdc	0.1562342
180	0xbf0a46d8	-0.5401435
181	0xbf56d58d	-0.839196
182	0x3dc53e14	0.09630981
183	0xbed368ea	-0.4129098
184	0x3cefb53f	0.02926123
185	0x3e55232f	0.20814203
186	0xbc94aecf	-0.018149761
187	0x3bbe29bd	0.0058033154
188	0x3e1ae785	0.1512738
189	0x3b5611a0	0.0032664314
190	0xbe1010eb	-0.14068954
191	0x3e3a4edf	0.1819415
192	0x3d91565c	0.0709655
193	0x3d92b160	0.07162738
194	0x3e090257	0.13379799
195	0x3c4b6d6e	0.012416227
196	0x3e27cabd	0.16385932
197	0x3dac0188	0.083987296
198	0x3ddbde92	0.10735811
199	0x3e5272ed	0.20551653
200	0xbdbd1907	-0.09233289
201	0x3e0a6427	0.13514768
202	0x3d2166d9	0.039404724
203	0x3cf49cc5	0.02985991
204	0x3d9bfd22	0.076166406
205	0x3e0afeac	0.13573712
206	0xbf816a8e	-1.0110643
207	0x3d83c835	0.06434671
208	0x3d950a30	0.07277334
209	0xbf01f172	-0.5075904
210	0xbc167f8e	-0.009185685
211	0xbe060dbf	-0.13091181
212	0x3df01b48	0.117239535
213	0xbc725296	-0.014790198
214	0x3e172eb3	0.14763908
215	0x3c9d0069	0.019165235
216	0xbde256b9	-0.11051697
217	0x3e12401f	0.14282273
218	0xbf35a59e	-0.70955837
219	0x3d8120e3	0.06305101
220	0xbeafefa2	-0.34362513
221	0xbefabd26	-0.48972434
222	0x3dd160e2	0.10223557
223	0xbde713e8	-0.11283094
224	0x3dcabaf5	0.098989405
225	0xbf2eed0a	-0.6833044
226	0x3d3152a9	0.04329172
227	0x3dd68677	0.10474866
228	0xbcd311ec	-0.025765382
229	0x3e187e24	0.14891869
230	0xbcf3e4a0	-0.029772103
231	0xbe22844e	-0.15870783
232	0xbf79f0fc	-0.9763334
233	0xbd5ddf1b	-0.054167848
234	0x3d69b01a	0.05705271
235	0xbec8450d	-0.39115182
236	0x3e37a8ab	0.17935435
237	0xbf6effc3	-0.9335901
238	0xbd69a318	-0.057040304
239	0x3cc9e73f	0.0246464
240	0xbf29697d	-0.6617659
241	0x3c7ae3f8	0.015313141
242	0xbf05993a	-0.5218693
243	0xbd3b5570	-0.045735776
244	0x3d80c831	0.062881835
245	0x3d431165	0.04762401
246	0xbf277bda	-0.6542336
247	0xba16886e	-0.00057423755
248	0x3e3f9638	0.18709648
249	0xbeaaa0cb	-0.333258
250	0x3e1c53ff	0.15266417
251	0x3e448763	0.19192271
252	0xbd8c062e	-0.06837116
253	0x3e0c5a00	0.13706207
254	0x3cac18e0	0.021007955
255	0x3e014ffb	0.12628166

PI.pi.4.bias f4 [6]
0	0x3c246416	0.010033628
1	0x3c714a90	0.01472725
2	0x3b12a2fd	0.002237498
3	0x3d03edb4	0.032209113
4	0x3d68f0e9	0.056870375
5	0xbe8a17f4	-0.269714

V.v.0.weight f4 [256, 88]
0	0x3d79cfcd	0.06098919
1	0xbd4ae867	-0.049538042
2	0x3d410b54	0.047129944
3	0xbd12d107	-0.035843875
4	0x3cc645cf	0.02420321
5	0xbdb68875	-0.08912746
6	0xbcedbfa2	-0.029022042
7	0x3a7c8980	0.0009633526
8	0xbd8f7367	-0.07004433
9	0xbd2a50b7	-0.041580882
10	0xbd643a24	-0.05571951
11	0xbdc13279	-0.09433455
12	0xbd9039b3	-0.07042255
13	0xbcf6074a	-0.030032773
14	0x3b628b18	0.003456777
15	0xbdbe4230	-0.09289968
16	0x3d1ee02a	0.038788
17	0x3d846053	0.06463685
18	0xbde4402c	-0.11145052
19	0x3d10c496	0.03534373
20	0xbdc5f92b	-0.09666666
21	0x3ca37a9a	0.019955922
22	0xbdacc031	-0.08435095
23	0xbc9de78e	-0.019275453
24	0xbd1ccf65	-0.038283724
25	0xbd6bd218	-0.057573408
26	0xbe0c84ce	-0.13722536
27	0x3d83fc6b	0.06444629
28	0xbd49c4c8	-0.04925993
29	0x3c57afe1	0.013164491
30	0xbd2ab4ed	-0.04167645
31	0x3d1a597f	0.037683006
32	0x3cec3b6d	0.02883693
33	0x3de865e6	0.113475606
34	0xbcbd6637	-0.023120029
35	0x3cd8a0dd	0.026443893
36	0xbcdca35d	-0.026933366
37	0x3cf7e0da	0.030258585
38	0x3d428eaa	0.047499336
39	0x3cec4132	0.028839681
40	0x3c453353	0.012036162
41	0x3d293c01	0.04131699
42	0xbd92edb0	-0.071742415
43	0xbcc49b96	-0.02399997
44	0xbdb9b933	-0.09068527
45	0xbdf2516a	-0.11831935
46	0xbd1bad82	-0.038007267
47	0x3cbdc040	0.023162961
48	0xbde18d12	-0.11013235
49	0xbc46f43d	-0.012143192
50	0xbc95f033	-0.018303012
51	0x3d4ad691	0.049521033
52	0x3d348402	0.044071205
53	0xbc52d11a	-0.0128672365
54	0xbca89bb2	-0.020582054
55	0xbe119ba1	-0.14219524
56	0xbe1512a4	-0.14557892
57	0x3dc0c1bf	0.09411954
58	0xbdc14a6c	-0.09438023
59	0xbc25dc21	-0.010123284
60	0xbc7a730c	-0.015286218
61	0x3c056620	0.008142024
62	0x3d849ab8	0.06474823
63	0x3d3e140a	0.04640583
64	0xbb05d2b3	-0.0020419776
65	0xbd390e8c	-0.04517989
66	0x3d12a82f	0.035804924
67	0xbc428995	-0.011873622
68	0x3d526936	0.05136987
69	0xbc949064	-0.018135257
70	0xbc3e804b	-0.011627267
71	0x3d4c2009	0.04983524
72	0xbcbd2f36	-0.023093801
73	0xbda0f5e9	-0.07859404
74	0xbd4670fa	-0.048447587
75	0xbd88a0dc	-0.066713065
76	0xbd0e0730	-0.034674823
77	0x3d32f4ff	0.043690678
78	0xbb0d87ce	-0.0021595838
79	0x3b5bdd67	0.0033548714
80	0xbd4a7d96	-0.049436174
81	0xbc113ca9	-0.00886456
82	0xbd3ebaf7	-0.046565022
83	0xbdf4d866	-0.11955337
84	0xbd5018d8	-0.050804943
85	0xbd8a495f	-0.06752276
86	0xbc36b34c	-0.011151146
87	0xbdf8ab12	-0.12142004
88	0xbda11c80	-0.07866764
89	0xbdd5f81b	-0.10447713
90	0xbd84b68b	-0.0648013
91	0xbda1a21d	-0.07892249
92	0xbc40c1c2	-0.011764945
93	0xbc9c8336	-0.019105535
94	0x3d03dcb2	0.032192893
95	0x3a9166bd	0.001109324
96	0xbd6fc73c	-0.058539614
97	0x3d6e4dec	0.05817978
98	0xbd96221b	-0.07330724
99	0xbe31f654	-0.17379123
100	0xbda5e153	-0.08099618
101	0xbe46a25c	-0.19397873
102	0x3db4bed8	0.08825463
103	0xbd6a202d	-0.05715959
104	0x3d1981fb	0.037477475
105	0xbd8f6023	-0.070007585
106	0xbd972d9f	-0.073817484
107	0x3d1f346d	0.038868356
108	0xbc9c2c7f	-0.019064186
109	0xbd977976	-0.07396214
110	0xbc084b2b	-0.008318703
111	0x3ade4b34	0.0016959668
112	0x3c0d9a97	0.008642814
113	0xbd940afd	-0.07228658
114	0xbd3cc2a5	-0.046084065
115	0xbe043a2a	-0.12912813
116	0xbd8b7834	-0.06810036
117	0xbcf6e422	-0.03013808
118	0xba93e3a1	-0.0011283049
119	0x3aa60acf	0.0012668016
120	0xbc9b8b21	-0.01898724
121	0x3cdca291	0.026932986
122	0x3d9e9377	0.077429704
123	0xbe1397c8	-0.14413369
124	0xbd6d3ddb	-0.057920318
125	0xbb659276	-0.0035029924
126	0xbd59c096	-0.05316218
127	0x3da40096	0.08007924
128	0xbd9089be	-0.07057522
129	0xbc686593	-0.014184373
130	0x3a63092d	0.000866073
131	0xbcc01ac5	-0.023450265
132	0x3d43106c	0.047623083
133	0xbd4992d6	-0.0492123
134	0xbde4f8fc	-0.111803025
135	0xbd3eabd6	-0.046550594
136	0xbe052668	-0.13002932
137	0xbb9a8617	-0.004715692
138	0xbe0c540f	-0.13703941
139	0xbe0e04ca	-0.13869014
140	0xbc98f3f9	-0.018671023
141	0xbe1c1dd2	-0.1524575
142	0x3d6b4330	0.057437122
143	0xbd368a81	-0.04456568
144	0xbdfa7469	-0.12229235
145	0xbdb721ee	-0.089420184
146	0xbdd36ccb	-0.10323485
147	0x3c1ed0a5	0.009693299
148	0xbd47d7a2	-0.048789628
149	0xbdb1cbb4	-0.086814314
150	0xbbd682a6	-0.006546336
151	0x3d228f90	0.039687693
152	0xbda83031	-0.08212317
153	0xbc4c1e40	-0.012458384
154	0xbd85d74f	-0.065352075
155	0xbd207a52	-0.039179154
156	0xbcc5f3b1	-0.024164053
157	0xbdc1bfed	-0.09460435
158	0xbd840b65	-0.06447486
159	0xbe72c31a	-0.23707238
160	0x3c3540ca	0.01106281
161	0xbe63226b	-0.22181098
162	0xbd4a6513	-0.049412798
163	0xbd734b38	-0.059397906
164	0xbd78f8fa	-0.060784318
165	0xbe0aabff	-0.13542174
166	0xbd98ae37	-0.07455104
167	0xbd3d4cde	-0.046215884
168	0xbe012920	-0.12613344
169	0xbdac6397	-0.08417433
170	0xbd56ea5f	-0.052469607
171	0xbd3c70b4	-0.04600592
172	0xbd87802b	-0.06616243
173	0xbd62a37f	-0.055331703
174	0xbc782901	-0.015146495
175	0x3b27edb4	0.002562386
176	0xbe335328	-0.1751219
177	0x3be1f1d5	0.0068952837
178	0xbdbb3212	-0.091404095
179	0xbc964e71	-0.01834795
180	0x3d572a87	0.05253079
181	0x3bff129a	0.0077842
182	0xbdf71e7d	-0.12066362
183	0xbddc7e70	-0.107663035
184	0xbd5d2f92	-0.054000445
185	0xbc2532a8	-0.010082878
186	0xbb71fe9c	-0.003692544
187	0x3a988395	0.0011635894
188	0xbc1741cd	-0.009231997
189	0xbd6833d8	-0.056690067
190	0xbd232457	-0.03982958
191	0xbe25347d	-0.16133304
192	0x3c8a7c2b	0.016904911
193	0xbd6a1039	-0.057144377
194	0xbd60af95	-0.054854948
195	0xbdcfbee4	-0.10143831
196	0xbd3f9cd6	-0.04678043
197	0x3b88f0d7	0.004179101
198	0xbe0e4b9b	-0.13896029
199	0xbe0411c6	-0.12897405
200	0xbd9e4294	-0.077275425
201	0xbdfdc1b9	-0.12390465
202	0x3c788fee	0.015171034
203	0xbd786f74	-0.060653165
204	0xbbb78abf	-0.0056012566
205	0xbd868ba8	-0.06569606
206	0xbd4ef525	-0.050526757
207	0x3ca4698a	0.020069856
208	0xbd575ab7	-0.052576747
209	0x3d4fdf3d	0.050750006
210	0x3ca4725c	0.020074062
211	0x3c0c075d	0.008546677
212	0xbd8ce3cf	-0.068793885
213	0xbd5827f5	-0.05277248
214	0xbd63faa0	-0.055658937
215	0xbdc8e59d	-0.0980942
216	0xbc8d38a7	-0.017238928
217	0x3be7a03b	0.0070686615
218	0xbd73ab0e	-0.059489302
219	0xbd68aa69	-0.05680314
220	0x3cfcf7cb	0.030879876
221	0xbd5fc52c	-0.054631397
222	0xbd22e26a	-0.039766707
223	0x3d61c594	0.055120066
224	0xbbd49ff2	-0.0064887935
225	0x3cb772a5	0.022393534
226	0xbd3203f2	-0.043460794
227	0xbc1d2ddc	-0.009593453
228	0xbdb6d9b5	-0.08928243
229	0x3c2bbc04	0.010481838
230	0xbd21d555	-0.03951009
231	0x3d631342	0.055438288
232	0x3b5b42ee	0.0033456641
233	0x3cf1ec34	0.029531576
234	0xbd2cdf43	-0.042205106
235	0x3d860fc2	0.06545974
236	0xbc749d94	-0.014930148
237	0x3d6adf0b	0.057341617
238	0x3ca06a47	0.019581927
239	0x3c857ae8	0.016293958
240	0x3d6dae37	0.058027472
241	0xbd7da904	-0.061928764
242	0xbbf64c44	-0.007516416
243	0xbdf81de1	-0.12115074
244	0xbe0053e0	-0.12531996
245	0x3d4be9b9	0.049783442
246	0xbe0d2d8d	-0.13786907
247	0xbc627e75	-0.013824095
248	0x3c0355b1	0.008016036
249	0xbcbb43c6	-0.022859465
250	0xbd138585	-0.036016006
251	0xbd27cbc6	-0.040965818
252	0xbb9784f4	-0.0046240035
253	0xbdacecf3	-0.08443632
254	0xbdc2eb03	-0.09517481
255	0x3c9a9895	0.018871585

V.v.0.bias f4 [256]
0	0xbe41e5af	-0.18935274
1	0xbd833be6	-0.06407909
2	0xbdf9a732	-0.12190093
3	0xbe2be162	-0.16785195
4	0xbd15ca67	-0.03656998
5	0xbcec5a48	-0.028851643
6	0xbe3ac463	-0.18238978
7	0xbe3e4762	-0.18581918
8	0x3c198658	0.009370409
9	0xbe27d43a	-0.16389552
10	0xbd694eb1	-0.05695981
11	0xbe5bddb8	-0.21471298
12	0xbdbbada0	-0.09163976
13	0xbdaf6d17	-0.08565729
14	0xbe1e1796	-0.15438685
15	0xbde2ebf5	-0.110801615
16	0xbcb68162	-0.022278491
17	0xbd6037b7	-0.054740634
18	0xbe46443c	-0.19361967
19	0xbe2c229e	-0.1681008
20	0xbddccbad	-0.107810356
21	0xbe204a6f	-0.15653394
22	0xbde2a1dc	-0.110660285
23	0xbe673f41	-0.22582723
24	0xbdb070ae	-0.08615242
25	0xbda46ee8	-0.08028966
26	0xbe9b814b	-0.3037208
27	0xbe32be7c	-0.17455477
28	0xbd9b035b	-0.075689994
29	0xbdfe274c	-0.12409839
30	0xbdfe862d	-0.12427936
31	0xbe5ad734	-0.21371156
32	0xbe1fe3d8	-0.15614259
33	0xbdf03aa6	-0.11729936
34	0xbe495d6d	-0.19664545
35	0xbe212f47	-0.15740691
36	0xbe0cb9d9	-0.1374277
37	0xbddc766a	-0.10764773
38	0xbdf7adee	-0.12093721
39	0xbe47ee4d	-0.19524498
40	0xbdb10f21	-0.08645464
41	0xbcfde655	-0.03099362
42	0xbdd9e4d5	-0.10639349
43	0xbdd74d7f	-0.10512828
44	0xbdf12f45	-0.11776594
45	0x3e149f2d	0.14513846
46	0xbd56f9f2	-0.05248446
47	0xbe2e5992	-0.17026356
48	0xbdbc4275	-0.09192363
49	0xbe25ff2b	-0.1621062
50	0xbdd5ce74	-0.104397684
51	0xbe0bf5bf	-0.13667963
52	0xbdb4f1ba	-0.08835168
53	0xbdf45a28	-0.119312584
54	0xbe34a36f	-0.1764047
55	0xbe456a50	-0.19278836
56	0xbde6a3d6	-0.11261718
57	0x3bd930d2	0.0066281343
58	0xbe2ca506	-0.16859826
59	0xbdc29e2a	-0.09502824
60	0xbe61fcd7	-0.22069107
61	0xbe729bb3	-0.23692207
62	0xbe1f763a	-0.15572444
63	0xbe3aab65	-0.18229444
64	0x3c9144c5	0.017732987
65	0xbd8d5b94	-0.06902233
66	0xbe389008	-0.18023694
67	0xbdb829d8	-0.08992356
68	0xbe2b4e04	-0.1672898
69	0xbe3782f8	-0.17921054
70	0xbd9eef7b	-0.07760521
71	0xbe396e0e	-0.18108389
72	0x3d2f78f1	0.042839948
73	0x3cc1c699	0.023654269
74	0xbde509c5	-0.11183504
75	0xbe04d4cf	-0.12971805
76	0xbe2e996e	-0.17050716
77	0xbe7ead62	-0.24870828
78	0xbe580c6a	-0.21098486
79	0xbda11018	-0.07864398
80	0xbc9ddcc6	-0.019270312
81	0xbe4119ec	-0.18857545
82	0xbe56a752	-0.20962265
83	0xbdef4fc8	-0.11685139
84	0xbd912127	-0.070864014
85	0xbe00e52f	-0.12587427
86	0xbe56b816	-0.2096866
87	0xbd06911b	-0.032853227
88	0xbe7c93d4	-0.24665767
89	0xbe3570d7	-0.17718826
90	0xbe7ab0b2	-0.24481466
91	0xbe2dc1b5	-0.16968425
92	0xbe30c90a	-0.1726419
93	0xbddf75f9	-0.109111734
94	0xbe11daaf	-0.14243577
95	0xbd6c6ce8	-0.05772105
96	0xbe2d7429	-0.16938843
97	0xbe41c563	-0.18922953
98	0xbe1c34c1	-0.15254499
99	0xbe317207	-0.17328654
100	0xbdbb91a8	-0.09158641
101	0x3e1d0f0d	0.15337773
102	0xbe4c05dd	-0.19924112
103	0xbe7f9461	-0.24958946
104	0xbdddb54d	-0.10825596
105	0xbddf18cd	-0.10893402
106	0xbd9ef646	-0.07761817
107	0xbe21fcac	-0.15819043
108	0x3ccecded	0.025244677
109	0xbddf700b	-0.109100424
110	0xbe3064c6	-0.17225942
111	0xbdc9f3dc	-0.098609656
112	0xbb111dc5	-0.0022142988
113	0xbe22afea	-0.15887418
114	0xbdfa2ba7	-0.12215357
115	0xbc9f2766	-0.019427966
116	0xbd369592	-0.044576235
117	0xbdae67bb	-0.08515879
118	0xbe3f575b	-0.18685667
119	0xbe71f0ff	-0.23627089
120	0xbe2629fa	-0.1622695
121	0xbe0273b9	-0.12739457
122	0xbe2db534	-0.16963655
123	0xbd89b056	-0.067230865
124	0xbe5b8fab	-0.21441524
125	0xbd3cfc7b	-0.04613922
126	0xbe0cd123	-0.13751654
127	0xbdc384ae	-0.09546791
128	0xbe53b172	-0.20673159
129	0xbe58231d	-0.21107145
130	0xbe286868	-0.16446078
131	0xbe41c415	-0.18922456
132	0xbd82e9d5	-0.06392256
133	0xbe07bd80	-0.13255882
134	0xbe836297	-0.25661156
135	0xbdfb7f1a	-0.12280102
136	0xbe6cc300	-0.23121262
137	0xbe28d8f0	-0.16489005
138	0xbd1445f2	-0.036199518
139	0xbdfa3241	-0.122166164
140	0xbe762025	-0.240357
141	0xbe343b90	-0.17600846
142	0xbe1aa8c5	-0.15103443
143	0xbe4c1003	-0.19927983
144	0xbe4444fa	-0.19166937
145	0xbe19b63b	-0.15010922
146	0xbdb86925	-0.0900443
147	0xbe458f1f	-0.19292878
148	0xbe581e5d	-0.21105333
149	0xbe260d6f	-0.16216062
150	0xbe0230b2	-0.12713888
151	0xbe3583f4	-0.17726117
152	0xbe2c7563	-0.16841654
153	0xbe43e183	-0.19128995
154	0xbd8d727f	-0.06906604
155	0xbe0f8351	-0.14014937
156	0xbe57222b	-0.21009128
157	0xbd436df4	-0.04771228
158	0xbe4f3e05	-0.20238502
159	0xbe4f3f4b	-0.20238988
160	0xbe9dbfde	-0.30810446
161	0xbe304c6c	-0.17216653
162	0xbe12306e	-0.14276287
163	0xbe552e16	-0.20818362
164	0x3c1429c1	0.009043158
165	0xbe2752a8	-0.16340125
166	0xbe5f2955	-0.2179311
167	0xbe4a873c	-0.1977815
168	0xbdbdaf61	-0.092619665
169	0xbe4c04b1	-0.19923665
170	0xbdb3e7c9	-0.08784444
171	0x3e3694a4	0.1783014
172	0xbd9dab77	-0.0769872
173	0xbe4bedee	-0.19914982
174	0xbe34aacb	-0.17643277
175	0xbe5822e9	-0.21107067
176	0xbe603ad4	-0.21897441
177	0xbdc6462f	-0.09681355
178	0xbd426139	-0.047456
179	0x3e1e9ba1	0.15489055
180	0x3c559044	0.013034884
181	0xbe237d5f	-0.15965794
182	0xbe0acc70	-0.13554549
183	0xbe83d3e5	-0.257476
184	0xbda5602f	-0.08074986
185	0xbd3f82f2	-0.04675574
186	0xbe0a21f8	-0.1348952
187	0xbe0ac626	-0.1355215
188	0xbda527f2	-0.080642596
189	0xbe3d3109	-0.18475737
190	0xbe42480d	-0.18972798
191	0xbdd055a3	-0.10172584
192	0xbe089619	-0.13338508
193	0xbd8b481b	-0.068008624
194	0xbd4d5109	-0.05012611
195	0xbe43c7b0	-0.19119143
196	0xbde851c0	-0.113437176
197	0xbe47a574	-0.19496709
198	0xbe633e9e	-0.22191855
199	0xbd9c6ec9	-0.07638318
200	0xbe0b387e	-0.13595769
201	0xbdcf783d	-0.101303555
202	0xbe2a41bf	-0.16626643
203	0xbd72a265	-0.059236903
204	0xbd998bf5	-0.07497398
205	0xbded09bc	-0.11574122
206	0xbe5c1d86	-0.21495637
207	0xbe17b81b	-0.14816324
208	0xbe1ac365	-0.151136
209	0xbe1ca7b4	-0.15298349
210	0xbdebcb40	-0.11513376
211	0xbe04114f	-0.12897228
212	0xbe8d35f1	-0.27580217
213	0xbe609f5e	-0.21935794
214	0xbe46a4c1	-0.19398786
215	0xbddbb75a	-0.10728331
216	0xbe2ded07	-0.1698495
217	0xbd4f6895	-0.050636847
218	0xbde73d82	-0.112910286
219	0xbd5a9bb0	-0.05337113
220	0xbe26e1fe	-0.16297147
221	0xbe5be3f3	-0.21473674
222	0xbe2c2955	-0.16812642
223	0xbe24e1cf	-0.16101764
224	0xbe7457c9	-0.23861612
225	0xbe5831f4	-0.21112806
226	0xbe20d9cc	-0.15708083
227	0xbe3f1ce0	-0.18663359
228	0xbdad75cb	-0.08469733
229	0xbe984c51	-0.29745725
230	0xbda8171f	-0.08207535
231	0xbdeb6e47	-0.11495643
232	0xbd34b1f7	-0.044115033
233	0xbe5ff9cc	-0.21872634
234	0xbe83ad79	-0.25718287
235	0xbe26487d	-0.1623859
236	0xbdb5ae4f	-0.08871137
237	0xbe431f94	-0.19055015
238	0xbe1ea4ba	-0.15492526
239	0xbd05228b	-0.032503646
240	0xbe07b9a2	-0.13254407
241	0xbe701559	-0.23445643
242	0xbe2614ed	-0.1621892
243	0xbd47f105	-0.04881384
244	0xbe64fcd9	-0.22362079
245	0xbdd59262	-0.10428311
246	0xbe0cb0f6	-0.1373938
247	0xbe13d19f	-0.14435433
248	0xbe2bd0eb	-0.16778915
249	0xbdc8d047	-0.09805351
250	0xbdc9947b	-0.098427735
251	0xbe1dbc40	-0.15403843
252	0xbdf7d166	-0.121004865
253	0xbe110e35	-0.14165576
254	0xbde6b234	-0.11264458
255	0xbd9bf685	-0.07615379
